wandb/run-20220630_120242-h5iklqch/files/model.pt (torch, 59031 bytes, 6 tensors)

cnn1.weight f4 [16, 1, 5, 5]
0	0x3e010157	0.12598167
1	0x3ea4d899	0.321965
2	0xbe9b1b32	-0.30294186
3	0xbeddd885	-0.43329254
4	0xbe8a0c35	-0.26962438
5	0x3d6d2273	0.05789418
6	0x3d31a0e9	0.043366347
7	0x3e660e15	0.2246631
8	0xbe17ebee	-0.14836094
9	0x3da3088d	0.07960615
10	0xbe189d42	-0.14903739
11	0xbe6588e1	-0.22415496
12	0xbec68d41	-0.38779643
13	0xbed22299	-0.4104202
14	0xbece027d	-0.40236273
15	0xbc79baaa	-0.015242258
16	0x3e1936b3	0.14962272
17	0x3e70105d	0.23443742
18	0xbd2d0afb	-0.0422468
19	0xbe36610c	-0.17810458
20	0x3e57fe2e	0.21093056
21	0x3eee69f9	0.46565226
22	0x3e8b627e	0.2722358
23	0x3f047c4d	0.5175217
24	0x3daa41d2	0.083133355
25	0x3b0a1e04	0.002107502
26	0x3e97a78c	0.29620016
27	0xbe5900e5	-0.21191747
28	0xbe39dbbf	-0.18150233
29	0xbdcf512a	-0.10122903
30	0xbe125864	-0.14291531
31	0x3e8aadb4	0.2708565
32	0xbde01d33	-0.10943069
33	0xbe196ed1	-0.1498368
34	0xbe6a3bfe	-0.22874448
35	0xbe6e8d88	-0.23296177
36	0xbd5f1314	-0.054461554
37	0x3e5d0937	0.21585546
38	0x3d873a10	0.066028714
39	0x3db4761d	0.08811591
40	0xbd04e028	-0.032440335
41	0xbda604cb	-0.08106383
42	0x3d626bf1	0.055278722
43	0xbe822591	-0.25419286
44	0xbe26c543	-0.16286187
45	0xbe1632ed	-0.14667864
46	0x3e26e53a	0.1629838
47	0x3e2a4055	0.16626103
48	0xbe1ea405	-0.15492256
49	0xbd957d16	-0.07299249
50	0xbc78d4c8	-0.01518745
51	0x3e17e558	0.14833581
52	0xbbfb0e28	-0.0076615997
53	0x3e694286	0.22779283
54	0x3d66b8be	0.056328528
55	0xbea622c9	-0.32448414
56	0xbdb5c164	-0.08874777
57	0xbee94bcf	-0.4556565
58	0xbcfeed86	-0.03111912
59	0xbe590680	-0.21193886
60	0xb9c0a640	-0.0003674496
61	0x3dfc97e4	0.12333658
62	0xbe7d60f2	-0.24744013
63	0x3eb2245f	0.34793374
64	0x3dfacbe8	0.12245923
65	0xbd9e7dfb	-0.077388726
66	0x3ca05d65	0.019575784
67	0xbd49aeb7	-0.049238887
68	0x3efe3740	0.49651527
69	0x3eb665cd	0.35624543
70	0xbe6111d6	-0.2197946
71	0xbe7f8d63	-0.24956279
72	0xbe0d86df	-0.1382098
73	0x3ef89df7	0.48558018
74	0x3e608f46	0.21929654
75	0x3effccea	0.49961025
76	0x3dfc323b	0.12314268
77	0xbf1f8eee	-0.6232747
78	0xbe24fdfd	-0.16112514
79	0xbf047fb2	-0.5175735
80	0xbdf2a034	-0.118469626
81	0x3f3158c1	0.6927605
82	0x3eaa061f	0.33207795
83	0xbef1e0a9	-0.47241715
84	0xbe9877fc	-0.2977904
85	0xbe16bb08	-0.14719784
86	0xbcc35cf0	-0.023848027
87	0x3e72611c	0.23669857
88	0x3eae2335	0.34011236
89	0xbe6bce89	-0.23028006
90	0x3e55d2ba	0.20881167
91	0x3edfc204	0.4370271
92	0x3e99e1bd	0.30055037
93	0x3dfe73fa	0.124244645
94	0xbecd3967	-0.40082857
95	0xbd2e43dc	-0.042545184
96	0x3ebd975f	0.3702955
97	0x3e274fdd	0.16339059
98	0xbe96eea5	-0.29478946
99	0xbec3051a	-0.3808983
100	0x3eddf57c	0.43351352
101	0x3ea46156	0.3210551
102	0xbcca3a69	-0.024686055
103	0xbd4e70f7	-0.0504007
104	0xbe295e48	-0.16539872
105	0x3d641754	0.05568631
106	0xbe29ed6a	-0.16594473
107	0xbe8760b1	-0.26440957
108	0xbd41852d	-0.047246147
109	0x3d59054c	0.052983567
110	0xbd996a1a	-0.074909404
111	0x3de94180	0.11389446
112	0xbe583b29	-0.21116318
113	0x3e452c82	0.1925526
114	0x3e60c152	0.21948746
115	0xbe532e65	-0.20623167
116	0xbd2a2909	-0.04154304
117	0xbd05664d	-0.032568265
118	0xbd1659fc	-0.03670691
119	0x3da9588a	0.082688406
120	0x3d5bf59e	0.053701036
121	0x3cbbadfe	0.022910114
122	0xbe1e1d68	-0.15440905
123	0x3dab9679	0.0837831
124	0xbe66f458	-0.22554147
125	0xbec81d06	-0.39084643
126	0xbe9be6af	-0.30449435
127	0xbeedb46d	-0.46426716
128	0xbe6b2671	-0.22963883
129	0xbe520e26	-0.2051321
130	0xbd538fc6	-0.051650785
131	0x3ccc1f7a	0.024917353
132	0xbe660f7c	-0.22466844
133	0x3d128f45	0.035781164
134	0x3e310113	0.17285566
135	0xbdec747c	-0.11545655
136	0x3e47a7f2	0.1949766
137	0x3e1cf7bd	0.1532888
138	0x3e9efca5	0.31052127
139	0x3e8298ce	0.25507206
140	0x3e5902e2	0.21192506
141	0x3ec43f31	0.3832946
142	0x3ed0780d	0.4071659
143	0x3d86b920	0.065782785
144	0xbe158c45	-0.1460429
145	0xbdcf403a	-0.10119672
146	0x3e8b8067	0.272464
147	0x3e1a5567	0.15071641
148	0xbdf04290	-0.11731446
149	0xbe269ffe	-0.1627197
150	0xbe920afe	-0.2852401
151	0xbe5f8a2c	-0.21830052
152	0xbd2603e2	-0.040531047
153	0x3e6aef00	0.22942734
154	0x3e071ffe	0.13195798
155	0xbe84972a	-0.2589658
156	0x3d88232e	0.06647335
157	0xbe2f7e97	-0.17138134
158	0xbc9949ca	-0.018711943
159	0xbe020fee	-0.12701389
160	0xba4438b7	-0.0007485258
161	0xbd80fde0	-0.06298423
162	0xbe988150	-0.29786158
163	0xbe5cf1da	-0.21576634
164	0xbd7305f8	-0.059331864
165	0x3dac1848	0.08403069
166	0x3c8fc531	0.017550083
167	0x3dec04c1	0.11524344
168	0xbe3f7e79	-0.18700589
169	0xbda12473	-0.0786828
170	0x3e8afa8a	0.2714427
171	0x3c84fd8f	0.016234187
172	0x3e924003	0.28564462
173	0x3df7cec0	0.12099981
174	0xbe889872	-0.26678807
175	0x3e9bf72c	0.30462015
176	0x3d45958c	0.048238322
177	0x3d313cfa	0.043271042
178	0x3e6e2d43	0.23259453
179	0xbe63c73f	-0.22243975
180	0x3e0d9469	0.13826145
181	0xbdf11b24	-0.11772755
182	0x3e37394a	0.17892948
183	0x3d0d85d6	0.034551464
184	0x3d0a7389	0.03380159
185	0x3e4a968d	0.19783993
186	0xbdf26cfb	-0.118371926
187	0xbdff767b	-0.1247377
188	0xbe99e483	-0.30057153
189	0x3c368ba5	0.011141692
190	0x3e697b5e	0.22800967
191	0x3db5aa06	0.0887032
192	0xbe6400c5	-0.22265919
193	0xbd6effe0	-0.05834949
194	0xbe883ad4	-0.26607382
195	0xbe33d0c1	-0.17560102
196	0xbe87d15e	-0.26526922
197	0xbdf3187a	-0.11869903
198	0xbe82f70d	-0.2557911
199	0xbe26e012	-0.16296414
200	0x3d57e74d	0.05271082
201	0x3e49f678	0.19722927
202	0xbe4fb563	-0.20284037
203	0xbe305eef	-0.17223714
204	0xbe315618	-0.17317998
205	0x3e0e0b89	0.13871588
206	0xbcdf575c	-0.027263336
207	0x3e7fa196	0.24963984
208	0x3e32b203	0.17450719
209	0x3e157761	0.1459632
210	0xbd06e35e	-0.032931678
211	0xbe4397fc	-0.19100946
212	0xbd167e53	-0.036741566
213	0xbceca02d	-0.028884972
214	0x3b1ad409	0.0023624918
215	0xbcc3ab93	-0.023885524
216	0xbe95181a	-0.2911995
217	0xbe14b487	-0.1452199
218	0x3e8127b6	0.2522561
219	0xbe3611ec	-0.17780274
220	0x3cfe60ec	0.031052075
221	0x3e80ddd8	0.25169253
222	0x3e1dcbab	0.15409724
223	0x3e1198d5	0.14218457
224	0xbe506b1a	-0.20353356
225	0x3e747c8f	0.2387564
226	0xbd49e581	-0.049291138
227	0xbe83c6cf	-0.25737616
228	0x3e114927	0.14188062
229	0xbd8045d2	-0.06263317
230	0x3df6f090	0.120576024
231	0x3ec370af	0.38171908
232	0xbeb39262	-0.3507262
233	0x3eb00157	0.34376022
234	0x3ec1348b	0.377354
235	0xbe0d1ede	-0.13781306
236	0x3e7b7f78	0.24560344
237	0xbf19e7a4	-0.6011908
238	0xbd9397cf	-0.072066896
239	0x3ec1aa20	0.37825108
240	0x3d36ff07	0.044676807
241	0x3e724436	0.23658833
242	0xbf13d19a	-0.577417
243	0x3cfd5102	0.030922417
244	0x3e981b0b	0.29708132
245	0xbe9dcf42	-0.30822188
246	0x3e71ee52	0.23626068
247	0xbf33839e	-0.70122707
248	0xbd9c41c7	-0.076297335
249	0x3de5c4c6	0.11219172
250	0xbeb74945	-0.35798088
251	0xbda8b226	-0.08237104
252	0x3f04624c	0.5171249
253	0xbe218847	-0.15774642
254	0xbe6d8c47	-0.23198043
255	0xbe5f0f33	-0.21783142

cnn1.bias f4 [16]
0	0x3e9350e1	0.28772643
1	0x3dc0741b	0.09397145
2	0xbe27d609	-0.16390242
3	0x3ea8906a	0.3292268
4	0x3e0f68c8	0.14004815
5	0xbdfb4588	-0.122691214
6	0x3e9150bc	0.28381908
7	0x3ea28f8b	0.3175014
8	0xbcffcc19	-0.031225251
9	0x3e93d626	0.2887432
10	0x3e05149a	0.1299614
11	0xbd2629ae	-0.040567093
12	0x3d48f513	0.049061846
13	0xbe1a1039	-0.15045251
14	0xbd9a21b7	-0.07525962
15	0xbef3804d	-0.47558823

cnn2.weight f4 [32, 16, 5, 5]
0	0x3d48933d	0.048968542
1	0xbd7f9cb3	-0.0624053
2	0xbd0fd9dd	-0.03511988
3	0x3ce0c4de	0.027437624
4	0x3c9a246d	0.018816197
5	0xbc402d80	-0.011729598
6	0x3d1b1498	0.037861437
7	0x3d6d32b5	0.057909686
8	0x3d537982	0.05162955
9	0xbd9c37ee	-0.07627855
10	0x3c96f389	0.018426673
11	0xbd1ba882	-0.0380025
12	0xbd910406	-0.070808455
13	0xbc4284e2	-0.011872502
14	0xbd5b5b18	-0.05355367
15	0x3d47d027	0.048782494
16	0x3d543c52	0.05181534
17	0xbd717939	-0.058953498
18	0xbdab8db0	-0.08376634
19	0xbd3ffe60	-0.04687345
20	0x3d5517f9	0.052024815
21	0x3d307ae2	0.04308594
22	0x3bd78a77	0.0065777856
23	0xbd8f0624	-0.06983593
24	0xbd8522d3	-0.06500783
25	0xbcc46936	-0.02397595
26	0xbc81fc41	-0.015867354
27	0x3cf321b7	0.029679162
28	0xbd3d41ed	-0.04620545
29	0x3d310db4	0.04322596
30	0x3b384213	0.0028115555
31	0x3b9d7eb2	0.004806363
32	0xbc5aa052	-0.013343887
33	0xbce7c54a	-0.028292317
34	0x3d53e011	0.05172736
35	0x3d6ac3f8	0.057315797
36	0x3d835862	0.06413342
37	0x3bac016e	0.005249194
38	0xbd5f041f	-0.05444729
39	0x3d4d587a	0.050133206
40	0x3d0c4a3b	0.03425048
41	0x3cf536ab	0.029933294
42	0xbd3027c8	-0.04300669
43	0xbd015278	-0.03157279
44	0xbd52b342	-0.051440485
45	0x3cb5b129	0.022179203
46	0x3d00a823	0.031410348
47	0xbd142341	-0.036166433
48	0x3c80f721	0.01574284
49	0x3ccf97ad	0.02534088
50	0x3c92907f	0.017891167
51	0xbd41611b	-0.047211748
52	0xbd47c2e2	-0.04876984
53	0x3d31f454	0.0434459
54	0x3d03fdbb	0.032224398
55	0x3c662570	0.014047012
56	0xbc2e109a	-0.010624075
57	0xbcc6514a	-0.024208684
58	0x3d8980f8	0.06714052
59	0xbd98e275	-0.07465068
60	0xbdaa5e7a	-0.08318801
61	0x3d07d238	0.033159465
62	0xbd1b202a	-0.03787247
63	0x3d9aad03	0.075525306
64	0xbd625142	-0.055253275
65	0xbdd2987d	-0.10282991
66	0xbdc2e369	-0.09516031
67	0x3ce8d1a3	0.028420275
68	0x3cc56bb7	0.024099214
69	0x3d1fcc92	0.039013453
70	0xbdae65a2	-0.08515479
71	0xbd236c2a	-0.039898075
72	0xbd5e927b	-0.054338913
73	0xbce84f96	-0.028358262
74	0xbcd52105	-0.026016722
75	0x3c85f136	0.01635037
76	0xbd97d528	-0.07413703
77	0xbd894826	-0.06703214
78	0x3d682e14	0.05668457
79	0x3dcb9688	0.09940821
80	0xbd85f3b5	-0.06540624
81	0xbda1cab7	-0.07899993
82	0x3dd6051d	0.10450194
83	0x3d6489f1	0.055795614
84	0xbcfd5a5f	-0.030926881
85	0x3cfe7a1b	0.031064084
86	0x3d275967	0.040856745
87	0x3d270195	0.040772993
88	0x3d08e22a	0.03341881
89	0xbb33e45b	-0.0027449343
90	0x3d2a4191	0.041566435
91	0x3d106803	0.035255443
92	0xbd9933d6	-0.0748059
93	0xbcd5e55b	-0.026110342
94	0xbd20bcad	-0.039242435
95	0x3de0c6a4	0.10975388
96	0x3bd04b2d	0.006356618
97	0xbd993fd3	-0.07482877
98	0xbd170514	-0.036870077
99	0xbd77e023	-0.060516488
100	0x3ca0bf48	0.01962246
101	0x3a561539	0.00081666146
102	0x3d085c8f	0.033291396
103	0x3cf33ec3	0.029693013
104	0x3d6651ec	0.05623047
105	0xbcace308	-0.02110435
106	0x3ba62bf2	0.0050711567
107	0xbd418b0b	-0.047251742
108	0x3c22613c	0.009910878
109	0xbd0a9bd0	-0.03384
110	0x3d83a7a0	0.06428456
111	0x3c90ac6c	0.017660342
112	0x3be51d9c	0.006992055
113	0xbbc9e29d	-0.0061610476
114	0x3d92c27d	0.07166002
115	0x3d6e5dac	0.0581948
116	0xbbf33617	-0.0074222195
117	0xbcf229d3	-0.029560959
118	0xbc82c91b	-0.015965035
119	0x3bd4a173	0.006488973
120	0x3b6086df	0.0034260077
121	0xba9ef3c6	-0.0012127094
122	0x3c9530dc	0.018211775
123	0x3d0d01d2	0.034425564
124	0xbbc57659	-0.006026071
125	0x3cf17bf3	0.029478049
126	0xbcb0eaeb	-0.021596393
127	0xbda31991	-0.07963861
128	0xbdce5c7b	-0.10076233
129	0x3c9deaaa	0.019276936
130	0xbc910e79	-0.017707096
131	0x3a5f7315	0.00085239235
132	0xbd600bbc	-0.05469869
133	0x3d22a4f5	0.039708097
134	0xbd3c3c84	-0.04595615
135	0xbd0294f4	-0.031880334
136	0x3d66afce	0.056320004
137	0xbcebb1df	-0.028771339
138	0xbbdd8719	-0.0067604897
139	0xbc334ca8	-0.010943569
140	0x3d1a1ce2	0.0376252
141	0xbc8b97d9	-0.01704018
142	0xbd11c55c	-0.035588607
143	0xbd1ea9ef	-0.03873628
144	0xbd99da44	-0.07512334
145	0xbc15acc7	-0.009135432
146	0xbd8152f4	-0.0631465
147	0x3bea7005	0.007154467
148	0xbd96d68d	-0.07365141
149	0x3ca7778d	0.020442748
150	0x3d2e7a8d	0.042597342
151	0xbc07d24e	-0.008289887
152	0x3d03a034	0.032135203
153	0x3c65eb29	0.014033117
154	0x3d2914d8	0.041279644
155	0x3d72073a	0.059088923
156	0xbbd05461	-0.006357715
157	0xbcd66c21	-0.026174607
158	0xbb5a7579	-0.003333418
159	0x3d52605f	0.051361438
160	0x3c033371	0.00800787
161	0xbcfe5b60	-0.03104943
162	0x3cf67032	0.030082796
163	0x3d72c7f1	0.05927271
164	0x3af08a72	0.0018351807
165	0x3c973fcb	0.018463036
166	0xbc41a43a	-0.01181894
167	0x3c5f15b4	0.013616014
168	0x3a0e0cdd	0.0005418787
169	0xbc56646b	-0.013085465
170	0x3db4c813	0.08827224
171	0x3d9b2584	0.07575515
172	0x3da1a809	0.07893378
173	0x3d8e1945	0.069384135
174	0x3ceb628c	0.028733514
175	0xbd00ada1	-0.031415585
176	0xbd092501	-0.033482555
177	0x3d8138ff	0.06309699
178	0x3d1a490a	0.03766731
179	0x3d51ba3b	0.051202994
180	0xbc8fc6e8	-0.0175509
181	0x3d92eda8	0.071742356
182	0x3d59a655	0.053137142
183	0x3d6579f7	0.056024518
184	0xbc1095ab	-0.008824746
185	0x3c2f8ff1	0.010715471
186	0xbb6879dd	-0.0035473027
187	0x3d70e8b1	0.05881566
188	0xbb4b4b9e	-0.0031020413
189	0x3ce0bb35	0.027433017
190	0x3d63b09f	0.05558836
191	0x3d2b5210	0.041826308
192	0x3d1f973f	0.0389626
193	0x3cf68cb9	0.030096399
194	0x3d31903e	0.04335045
195	0xbcf0b0e1	-0.029381217
196	0x3dd6951a	0.104776576
197	0x3c58716b	0.013210635
198	0x3d32a83c	0.043617472
199	0x3d9ecc2d	0.07753787
200	0x3aa88ab8	0.0012858724
201	0xbcc40f26	-0.023933005
202	0x3ca3dc23	0.02000243
203	0xbcc7089d	-0.0242961
204	0xbc91888c	-0.017765306
205	0x3d8400fa	0.06445499
206	0x3ae7fc3f	0.0017699077
207	0xbd7eb437	-0.062183585
208	0xbc4c7764	-0.012479637
209	0xbce0d1db	-0.027443817
210	0x3d89191a	0.06694241
211	0xbbe530c9	-0.006994341
212	0xbd782dde	-0.060590617
213	0xbcc8f257	-0.02452962
214	0x3c9bc6df	0.019015728
215	0x3cb65847	0.02225889
216	0xbbb64de8	-0.0055634864
217	0x3af66ec4	0.0018801321
218	0x3c8da900	0.0172925
219	0xbd14f0a8	-0.03636232
220	0xbcb439f7	-0.022000296
221	0xbd825f64	-0.063658506
222	0xbd3fc027	-0.04681411
223	0x3c48ecfb	0.012263532
224	0xbd6b47c5	-0.05744149
225	0x3d93172b	0.07182153
226	0xbb20c096	-0.0024528853
227	0xbd0dd8ef	-0.034630712
228	0x3d2e4260	0.04254377
229	0x3d4f405b	0.050598484
230	0x3cc2c991	0.023777755
231	0x3d2dd761	0.04244173
232	0xbdb3836a	-0.087652996
233	0x3cff0b20	0.031133235
234	0x3d02db2b	0.031947296
235	0xbb961171	-0.004579716
236	0x3db81e4e	0.08990155
237	0xbd8f17a2	-0.069869295
238	0xbd04b643	-0.03240038
239	0xbca29aa9	-0.019849138
240	0x3ba9e4d9	0.0051847515
241	0x3dcaefbd	0.09909008
242	0x3cc9faa8	0.024655655
243	0x3d927b5f	0.071524374
244	0x3c57c094	0.013168473
245	0xbd177f92	-0.036986895
246	0x3d70e956	0.058816276
247	0x3ab8071f	0.0014040208
248	0x3d35996d	0.04433577
249	0x3d8955fd	0.06705854
250	0x3c23f64e	0.010007454
251	0x3da0cee1	0.07851959
252	0x3d0d830e	0.03454881
253	0x3bf72319	0.0075420258
254	0x3d4aa9d0	0.049478352
255	0x3d7c9aae	0.06167095

cnn2.bias f4 [32]
0	0x3c503b3e	0.012709437
1	0x3d2f9a67	0.04287186
2	0xbca853b4	-0.020547725
3	0xbc1ea5b6	-0.009683063
4	0xbcba4a62	-0.022740547
5	0x3cdf075b	0.027225187
6	0xbca26406	-0.019823086
7	0xbcc50cfc	-0.024054043
8	0xbd06516f	-0.032792505
9	0xbd08ed1c	-0.03342925
10	0x3d5a387b	0.05327652
11	0x3bf54ff9	0.00748634
12	0x3d210f25	0.039321084
13	0xbd0ddf4e	-0.034636788
14	0xbc7e28d9	-0.0155126685
15	0x3cfd7e6b	0.03094407
16	0x3d226532	0.03964729
17	0xbc69703b	-0.014247949
18	0xbb4baaa5	-0.0031077054
19	0xbc4ebc58	-0.012618147
20	0xbda187a5	-0.078872
21	0x3da92022	0.08258082
22	0x3cbd54b5	0.02311168
23	0x3c744054	0.014907915
24	0x3d52c9e0	0.051462054
25	0x3cec16cc	0.028819464
26	0xbaeb85ee	-0.0017968991
27	0x3cf597a9	0.029979544
28	0xbd01eabd	-0.031718004
29	0x3d9c212e	0.07623516
30	0x3c8c6138	0.017136201
31	0xbbcc718b	-0.0062391213

fc1.weight f4 [2, 512]
0	0x3e1f0be5	0.15531881
1	0xbe573d0c	-0.21019381
2	0x3d47d278	0.048784703
3	0x3e1546e0	0.14577818
4	0x3e28f45f	0.1649947
5	0x3b8464e3	0.004040347
6	0x399f7096	0.00030410726
7	0x3dc8f014	0.09811416
8	0x3e13276b	0.14370506
9	0xbc281cc2	-0.010260763
10	0x3d8f3a2e	0.06993519
11	0x3de279c5	0.11058382
12	0xbe44b049	-0.19207872
13	0xbdf8c12e	-0.12146221
14	0xbc629d9d	-0.013831523
15	0xbd538c49	-0.05164746
16	0xbd929904	-0.07158092
17	0x3e1b25c4	0.15151125
18	0xbee4700b	-0.44616732
19	0xbbf16258	-0.00736646
20	0x3b95eb20	0.004575148
21	0x3eb26507	0.34842703
22	0xbd1f94de	-0.03896033
23	0xbdbaf328	-0.091284096
24	0xbdf21667	-0.11820679
25	0x3e71d7b9	0.23617448
26	0x3e4eaf34	0.20184022
27	0x3d25764b	0.040396016
28	0xbe9747cb	-0.2954696
29	0x3e3d8c1e	0.18510482
30	0x3e9e5826	0.30926627
31	0x3e8c9f31	0.27465203
32	0xbd438f8f	-0.04774433
33	0x3dde7331	0.10861815
34	0x3e83e52a	0.25760776
35	0xbe88ca9e	-0.26717085
36	0x3d6378e7	0.055535223
37	0x3e3e9661	0.18612053
38	0x3e0da1b0	0.1383121
39	0xbd7418c1	-0.05959392
40	0x3d72d2ef	0.059283193
41	0x3d7b11a9	0.06129614
42	0x3c85528f	0.016274719
43	0xbe087ddf	-0.13329266
44	0x3da2bf5f	0.079466574
45	0x3e0c7e15	0.13719971
46	0xbc1966ea	-0.0093629155
47	0xbe4c74b4	-0.19966394
48	0xbc98e11c	-0.018662028
49	0xbbe8a0f0	-0.0070992634
50	0xbd136508	-0.035985023
51	0xbbd1f5ef	-0.0064074914
52	0xbd27e38c	-0.04098849
53	0x3c82599d	0.015911872
54	0xbd20e670	-0.039282262
55	0x3bd42290	0.0064738467
56	0xbcdca822	-0.02693564
57	0x3b2d5c17	0.0026452595
58	0x3b99075a	0.004670066
59	0xbd78e743	-0.060767423
60	0xbcc740aa	-0.024322826
61	0xbda23c42	-0.079216495
62	0xbd5a00fb	-0.05322359
63	0xbd783853	-0.06060059
64	0xbd93be0d	-0.07213984
65	0xbd76bdb9	-0.060239527
66	0x3c9d31ef	0.01918885
67	0xbd5d1f4e	-0.053984933
68	0xbd5b9c4a	-0.053615846
69	0xbb61bb9f	-0.0034444106
70	0x3ae77c18	0.0017660884
71	0x3d4a3813	0.049369883
72	0xbe019bd4	-0.126571
73	0xbdd3f736	-0.10349886
74	0xbd1dcfef	-0.03852838
75	0x3dc59b43	0.096487544
76	0xbe1cc26c	-0.15308541
77	0x3cf3612a	0.029709417
78	0x3d0da734	0.034583285
79	0x3e7c34aa	0.24629465
80	0x3e02856c	0.12746209
81	0x3e0cf359	0.13764705
82	0xbe8b38b7	-0.27191707
83	0x3da3f35e	0.08005403
84	0x3e24e24c	0.1610195
85	0x3d326f35	0.043563087
86	0xbe006874	-0.12539846
87	0x3c9d3618	0.019190833
88	0x3d9d699d	0.0768616
89	0xbd608b96	-0.05482062
90	0x3cb26682	0.021777395
91	0x3bebf74e	0.007201112
92	0x3e266820	0.16250658
93	0xbe10e76f	-0.14150785
94	0x3e0fcc4c	0.14042777
95	0x3dea6661	0.114453085
96	0xbdf1057e	-0.11768626
97	0x3ccaa5a5	0.024737189
98	0x3d17cdc3	0.037061464
99	0xbe6c8ab0	-0.2309978
100	0xbd669abf	-0.05629992
101	0xbcd802ad	-0.026368463
102	0x3c84528c	0.016152643
103	0x3db16a9a	0.08662911
104	0x3d863f23	0.06555011
105	0xbd4b17d7	-0.049583282
106	0x3bd1a257	0.0063975262
107	0x3d513ece	0.051085286
108	0x3dd397e3	0.103317045
109	0xbd7f70f2	-0.062363572
110	0xbd224f0e	-0.039626174
111	0x3e56b6e6	0.20968208
112	0xbcc0f954	-0.023556389
113	0x3cf48a1c	0.029851012
114	0x3d02f856	0.031975113
115	0x3daf6ef6	0.08566086
116	0x3cdd5025	0.027015755
117	0xbcea7fa7	-0.028625323
118	0x3c04c038	0.008102469
119	0x3d3e268a	0.046423472
120	0xbc81911e	-0.015816268
121	0xbc96dbf1	-0.018415423
122	0x3c29684f	0.0103398105
123	0xbdd8ab27	-0.1057952
124	0xbc71df0d	-0.014762652
125	0xbd349538	-0.04408762
126	0xbd39ae79	-0.045332406
127	0x3c938871	0.018009396
128	0xbdaf87df	-0.08570837
129	0xbebce460	-0.36892986
130	0x3da825ac	0.0821031
131	0x3eee2338	0.46511245
132	0xbdc217fc	-0.09477231
133	0xbe1cc13a	-0.15308085
134	0x3d5ad93f	0.05342984
135	0x3cd1ad15	0.025595227
136	0xbd848465	-0.06470565
137	0x3d3b06b6	0.045660697
138	0x3d973a92	0.07384218
139	0xbd9099ab	-0.0706056
140	0x3d6dd210	0.05806166
141	0x3e5b618e	0.21423933
142	0x3e1f0ab1	0.15531422
143	0xbe99666a	-0.29960948
144	0xbdfd7236	-0.123753
145	0x3dd7013c	0.10498282
146	0x3db99853	0.09062257
147	0x3c9bcfa4	0.01901991
148	0xbde3ba42	-0.1111951
149	0xbd5c667d	-0.053808678
150	0x3d77db0a	0.060511626
151	0x3c458a48	0.012056895
152	0xbdec8077	-0.1154794
153	0xbd392ce3	-0.045208823
154	0xbc4fd740	-0.012685597
155	0x3c9033ae	0.017602768
156	0xbe223dc7	-0.15843879
157	0x3d0c7e68	0.034300238
158	0x3b5d9732	0.0033812043
159	0x3e242728	0.16030562
160	0x3e8ce905	0.2752153
161	0x3e8a439c	0.27004707
162	0x3f048c5e	0.51776683
163	0xbdd87488	-0.105691016
164	0x3d08bbb5	0.033382136
165	0x3e2cb2c5	0.1686507
166	0x3e921469	0.28531197
167	0xbd5e4ce9	-0.054272566
168	0xbd57a16e	-0.052644186
169	0xbd8f974f	-0.07011282
170	0x3e667dfb	0.22508995
171	0x3d32a8d1	0.043618027
172	0xbe8a7875	-0.27045026
173	0xbe9d4387	-0.30715582
174	0xbd4b3a21	-0.049615983
175	0xbd2e8488	-0.04260686
176	0x3d2b1074	0.041763738
177	0xbb40f06c	-0.0029440178
178	0xbe67860d	-0.2260973
179	0xbbbd787e	-0.005782186
180	0x3c256b4b	0.010096381
181	0xbdb84833	-0.08998146
182	0x3b7f0309	0.0038911721
183	0xbb2fa5cf	-0.002680171
184	0xbd34e88d	-0.04416709
185	0xbdb049bb	-0.08607813
186	0xbbc7f755	-0.0061024823
187	0xbca9b3aa	-0.020715553
188	0xbce21226	-0.027596544
189	0xbe215521	-0.1575513
190	0xbdc85375	-0.09781543
191	0xbe0e17b6	-0.13876233
192	0x3e40cff2	0.18829325
193	0xbe168119	-0.14697684
194	0xbd5454dc	-0.05183874
195	0x3e6a0888	0.22854817
196	0x3db94be0	0.09047675
197	0xbdae3f19	-0.08508129
198	0x3ca3834f	0.019960074
199	0x3d3e9971	0.046533052
200	0x3d8c9f5d	0.06866334
201	0xbe5e287a	-0.21695128
202	0x3e8117ae	0.2521338
203	0xbd536a81	-0.051615242
204	0x3c89640a	0.016771335
205	0xbeae8020	-0.34082127
206	0x3e5ece83	0.21758465
207	0xbadc62c3	-0.0016814101
208	0xbe15cf04	-0.14629751
209	0xbda7a020	-0.08184838
210	0xbc290184	-0.010315303
211	0xbc4fa6cd	-0.012674046
212	0xbe301bf7	-0.17198168
213	0x3c986e14	0.018607177
214	0xbce95aa1	-0.028485598
215	0xbdbff675	-0.0937318
216	0xbd80127b	-0.06253525
217	0x3e08f856	0.13375983
218	0xbcb06cea	-0.02153631
219	0x3d351cda	0.044216968
220	0xbcf0cc17	-0.029394193
221	0x3da66dc9	0.081264086
222	0xbce5f9cc	-0.028073214
223	0xbcb0ad5a	-0.021567035
224	0xbc29d1cb	-0.01036496
225	0xbd630fb7	-0.05543491
226	0xbd3ac704	-0.045599952
227	0xbd21e63b	-0.039526206
228	0xbc85a6e5	-0.016314933
229	0xbd6bb6e1	-0.057547454
230	0xbd438c7c	-0.0477414
231	0xbde050c2	-0.10952903
232	0xbc85217c	-0.016251318
233	0xbd7cc906	-0.06171515
234	0xbb7a4d1a	-0.0038192929
235	0xbdae2142	-0.08502437
236	0xbd8e93ae	-0.069617614
237	0xbd940dea	-0.072292164
238	0xbcad4871	-0.021152707
239	0xbd1de1f2	-0.038545556
240	0xbd2c5a4a	-0.042078294
241	0xbdc413b2	-0.09574069
242	0xbd3c8b76	-0.046031438
243	0xbda9844e	-0.08277188
244	0xbc836f44	-0.016044267
245	0xbd8ed315	-0.069738545
246	0xbccca573	-0.024981236
247	0xbd253a95	-0.04033907
248	0xbcef719e	-0.029228982
249	0xbd9d777c	-0.076888055
250	0xbcfd977a	-0.030956019
251	0xbd220f4f	-0.03956538
252	0xbd287f3e	-0.041136973
253	0xbd8b62eb	-0.068059765
254	0xba801636	-0.0009772244
255	0xbd89e17b	-0.0673246

fc1.bias f4 [2]
0	0x3ddafd4d	0.106928445
1	0xbdb0559d	-0.086100794
