wandb/run-20220629_100650-1o5px7mf/files/model.pt (torch, 59031 bytes, 6 tensors)

cnn1.weight f4 [16, 1, 5, 5]
0	0x3d139199	0.036027525
1	0x3e4a34f4	0.19746763
2	0xbe371dd8	-0.17882478
3	0xbe6c26ac	-0.23061627
4	0xbd6a9176	-0.05726763
5	0x3d94cf75	0.07266132
6	0x3d5ac552	0.053410836
7	0x3e4c0eae	0.19927475
8	0xbdb17cd7	-0.086663894
9	0x3daadfe1	0.08343483
10	0xbdad8129	-0.08471901
11	0xbbef8d04	-0.0073105115
12	0xbe3ede28	-0.18639433
13	0xbe3dec84	-0.18547255
14	0xbdec7022	-0.11544825
15	0xbcafc6cb	-0.021457097
16	0x3e2b3834	0.16720659
17	0x3e1b568b	0.15169732
18	0xbe24c7f2	-0.16091898
19	0xbdc9ac04	-0.098472625
20	0x3dadde1c	0.084896296
21	0x3e982711	0.29717305
22	0x3c37eaa5	0.011225377
23	0x3e2edde6	0.17076835
24	0xbca1467c	-0.01968693
25	0x3ce1a0af	0.02754244
26	0x3e5edcba	0.21763888
27	0xbe5a56ee	-0.21322224
28	0xbe1014b1	-0.14070393
29	0xbd5deb1d	-0.0541793
30	0xbdbd8dc9	-0.09255559
31	0x3e4fd460	0.20295858
32	0xbe09653c	-0.13417524
33	0xbdd539cf	-0.10411417
34	0xbe12223b	-0.1427087
35	0xbe4f1296	-0.20221934
36	0xbdd65d04	-0.1046696
37	0x3e28ea61	0.16495658
38	0x3da13631	0.07871664
39	0x3dccb07d	0.099946
40	0x3b8b1e2d	0.0042455406
41	0xbdb8337a	-0.089941934
42	0x3d2fd03a	0.04292319
43	0xbe3d5072	-0.18487719
44	0xbe14c5af	-0.14528535
45	0xbde37bdf	-0.11107611
46	0x3e184238	0.1486901
47	0x3e016499	0.12636031
48	0xbda2f724	-0.079572946
49	0xbb9db162	-0.0048124054
50	0x3e0e91c4	0.13922793
51	0x3e893a20	0.26802158
52	0x3d9bd608	0.076091826
53	0x3d32ae69	0.04362336
54	0x3e2fa7d9	0.17153873
55	0xbe19a084	-0.15002638
56	0x3d34471f	0.04401314
57	0xbe6d8a51	-0.23197295
58	0xbe209120	-0.15680361
59	0xbdbbf9bf	-0.09178495
60	0x3dbc4711	0.09193242
61	0x3dfa5e56	0.122250244
62	0xbe429b16	-0.19004473
63	0x3d5c61c0	0.05380416
64	0x3e094921	0.13406803
65	0xbb84d8cc	-0.0040541645
66	0x3d6c331c	0.05766593
67	0x3c962e2a	0.01833256
68	0x3e3e3315	0.18574174
69	0x3e9c1466	0.30484313
70	0xbe31e98f	-0.17374252
71	0xbd83d3e6	-0.06436901
72	0x3d60c0d1	0.054871384
73	0x3e6d2b0e	0.23160955
74	0x3e88d5b8	0.26725554
75	0x3e87b189	0.26502636
76	0x3df7a188	0.120913565
77	0xbe716ef2	-0.23577479
78	0xbcd53336	-0.026025396
79	0xbe4c797e	-0.1996822
80	0xbe2a2506	-0.16615686
81	0x3e94edd9	0.29087713
82	0x3e4b113b	0.19830792
83	0xbe7fc674	-0.24978048
84	0xbd291f9a	-0.041289903
85	0x3b8f03ac	0.0043644514
86	0x3d2703b7	0.040775027
87	0xbccfe82a	-0.02537926
88	0x3dd1d1d4	0.102451
89	0xbe3bfcb9	-0.18358125
90	0x3dff1138	0.12454456
91	0x3e73053b	0.23732464
92	0x3e66227f	0.22474097
93	0x3d83b8c8	0.064317286
94	0xbe850ac6	-0.25984782
95	0xbda0e3ce	-0.0785595
96	0x3e5a550a	0.21321502
97	0x3dbe925e	0.09305261
98	0xbe42a577	-0.19008432
99	0xbe42dc8a	-0.19029441
100	0x3e5ff9b3	0.21872596
101	0x3e098623	0.13430075
102	0xbdedef75	-0.116179384
103	0xbd84fc6c	-0.06493458
104	0xbe326022	-0.17419484
105	0xbc2907c8	-0.010316797
106	0xbe24c35d	-0.1609015
107	0xbe44660a	-0.1917955
108	0xbd4cde89	-0.050016914
109	0x3d3fe4ad	0.04684894
110	0xbdaa742d	-0.0832294
111	0x3e03c722	0.12868932
112	0xbdf818e5	-0.12114123
113	0x3e29ab1e	0.16569182
114	0x3e2c87b7	0.16848646
115	0xbe1ff6dc	-0.15621513
116	0xbd25f915	-0.040520746
117	0x3c38fd59	0.011290872
118	0x3c525116	0.012836715
119	0x3da6286b	0.08113178
120	0x3dad7550	0.08469641
121	0x3c61f70e	0.013791813
122	0xbde1f858	-0.11033696
123	0x3d91ff8c	0.0712882
124	0xbe23d9c4	-0.1600104
125	0xbe050882	-0.12991527
126	0xbd94aefd	-0.07259939
127	0xbe0a1566	-0.13484725
128	0xbd8c9ee8	-0.068662465
129	0xbe27821b	-0.16358225
130	0xbd497690	-0.049185336
131	0x3d21e179	0.039521668
132	0xbe191b0e	-0.14951727
133	0xbbd475f6	-0.0064837886
134	0x3e1b9562	0.15193704
135	0xbb6cdbc0	-0.0036141723
136	0x3c8c1096	0.017097753
137	0xbc7fdd79	-0.015616768
138	0x3d6ed5c2	0.058309324
139	0x3e1bc1ae	0.15210602
140	0x3e5334f0	0.20625663
141	0x3e1c8f03	0.1528893
142	0x3e5e34cd	0.2169983
143	0xbc8a7099	-0.016899394
144	0xbe3c3b65	-0.18382032
145	0xbda99a18	-0.08281344
146	0x3e1cd1e6	0.15314445
147	0x3c9a994d	0.018871928
148	0xbdc4c1f1	-0.09607304
149	0xbe23ee14	-0.16008788
150	0xbe5508bd	-0.20804115
151	0xbe48b284	-0.19599348
152	0xbd532e5d	-0.051557887
153	0x3e0ec8bb	0.1394376
154	0x3e043c63	0.1291366
155	0xbe56b3d4	-0.20967036
156	0x3dc8fb99	0.098136134
157	0xbe2ce68c	-0.16884822
158	0xbcf47719	-0.029841946
159	0xbd9d054f	-0.07667028
160	0xbd34fc84	-0.04418613
161	0xbd864979	-0.065569825
162	0xbe43a1f8	-0.19104755
163	0xbe2aee1e	-0.16692397
164	0xbd1486b4	-0.036261275
165	0xbb5e6877	-0.0033936778
166	0xbdda02dd	-0.106450774
167	0x3db6be57	0.08923023
168	0xbe34d069	-0.17657627
169	0xbd123252	-0.03569252
170	0x3e2d062e	0.16896889
171	0xbdd025fd	-0.10163496
172	0x3e4c1daa	0.19933191
173	0x3d948e8d	0.07253752
174	0xbe517125	-0.20453317
175	0x3e2c3cf4	0.16820127
176	0xbc07738a	-0.008267293
177	0xbd75925c	-0.059954032
178	0x3e94ceb1	0.29063943
179	0xbe22869c	-0.15871662
180	0x3d1f6fcc	0.038924977
181	0xbd7c7547	-0.061635282
182	0x3e23cb97	0.15995632
183	0x3e118897	0.14212261
184	0x3e021a33	0.12705307
185	0x3dc0a4cd	0.09406433
186	0xbda5f503	-0.08103373
187	0xbd850659	-0.06495351
188	0xbe355963	-0.1770988
189	0x3de354bc	0.11100146
190	0x3e2d755d	0.16939302
191	0x3ded11f2	0.115756884
192	0xbe41e5a8	-0.18935263
193	0xbd04bd93	-0.032407355
194	0xbe2145aa	-0.15749231
195	0xbe2097b7	-0.15682875
196	0xbe0d491f	-0.13797425
197	0x3d1e497b	0.038644295
198	0xbe2e617c	-0.17029375
199	0xbcba63e1	-0.022752704
200	0x3d06daac	0.032923386
201	0x3e1f7110	0.15570474
202	0xbe4a06a0	-0.1972909
203	0xbe304981	-0.1721554
204	0xbe4fb55d	-0.20284028
205	0x3e36b159	0.1784109
206	0xbc67eec3	-0.014156046
207	0x3e710a39	0.23539056
208	0x3e0a2ca9	0.13493599
209	0x3bd441ab	0.006477555
210	0x3be69915	0.007037292
211	0xbd24a61a	-0.04019747
212	0x3c6ad13f	0.014332115
213	0xbcc5bb9a	-0.024137307
214	0xbd854f2d	-0.06509242
215	0x3cdc7966	0.026913356
216	0xbe1e4f96	-0.15460047
217	0xbddf9021	-0.10916162
218	0x3e5eec7f	0.21769904
219	0xbe55faa1	-0.20896389
220	0xb98a057c	-0.00026325497
221	0x3e81b3ac	0.2533239
222	0x3dad44e4	0.084604055
223	0x3d559950	0.052148163
224	0xbe548a11	-0.20755793
225	0x3e034ee8	0.12823069
226	0xbe09bfb8	-0.13452041
227	0xbdf8fa5a	-0.12157126
228	0xbd403280	-0.04692316
229	0x3b51e48b	0.0032027091
230	0x3c2656bf	0.010152518
231	0x3e704e9c	0.23467487
232	0xbdcf053b	-0.101084195
233	0x3e546ebf	0.20745371
234	0x3e49ed0e	0.19719335
235	0xbddc95f9	-0.107707925
236	0x3e42f940	0.19040394
237	0xbe8460f4	-0.2585522
238	0xbd9936a9	-0.07481129
239	0x3e06e4bb	0.13173191
240	0x3d934551	0.071909554
241	0x3e6451e9	0.22296871
242	0xbe3d55be	-0.1848974
243	0xbd112bf2	-0.0354423
244	0x3e07c530	0.13258815
245	0xbe5ec73a	-0.21755686
246	0x3e56bbe5	0.20970114
247	0xbe96ac25	-0.2942821
248	0xbce65834	-0.02811823
249	0xbbe2d2ce	-0.0069221025
250	0xbe10d4ed	-0.14143725
251	0x3c45e432	0.012078332
252	0x3e87ae14	0.265
253	0xbd55bd63	-0.052182566
254	0xbdfad807	-0.12248235
255	0xbdf05d73	-0.11736574

cnn1.bias f4 [16]
0	0x3e29d70b	0.16585939
1	0x3d3f2f53	0.04667599
2	0xbdd3d0cf	-0.103425615
3	0x3e51b894	0.20480567
4	0x3da7f72e	0.08201443
5	0xbe140d52	-0.14458206
6	0x3e8327c5	0.2561628
7	0x3e44e9a3	0.1922975
8	0xbcd5f583	-0.026118046
9	0x3e2bdf64	0.16784436
10	0xbd690e43	-0.056898367
11	0xbd078e45	-0.033094663
12	0x3e5db52d	0.21651144
13	0xbca0a3d6	-0.019609373
14	0xbdd3df3a	-0.103453115
15	0xbdf38e0e	-0.11892329

cnn2.weight f4 [32, 16, 5, 5]
0	0x3c07e5ac	0.008294504
1	0xbc4acfa5	-0.012378608
2	0x396c60fb	0.00022542842
3	0x3d87e6e3	0.06635835
4	0x3a33610d	0.000684277
5	0xbca8574f	-0.020549444
6	0xbc3f9512	-0.011693256
7	0x3cad9ea7	0.021193815
8	0x3d5ab409	0.05339435
9	0xbd2a6f31	-0.041609947
10	0xbb4057c2	-0.0029349183
11	0xbd15c4f7	-0.036564793
12	0xbd4a7621	-0.049429063
13	0x3bd9162b	0.006624957
14	0xbd09ecec	-0.033673212
15	0x3c2f106e	0.0106850695
16	0x3d27a0ce	0.04092484
17	0xbd0a8451	-0.033817593
18	0xbd7800d5	-0.06054767
19	0xbcd8348f	-0.02639225
20	0x3987e80f	0.00025922104
21	0xbd14c580	-0.036321163
22	0xbbc3f1b9	-0.0059797433
23	0xbda093db	-0.07840701
24	0xbd808d60	-0.06276965
25	0xbd273c1b	-0.040828805
26	0xbc1fe464	-0.009759042
27	0x3cf71c1d	0.030164773
28	0xbd568850	-0.05237609
29	0x3d4ae701	0.04953671
30	0xbc7b97e2	-0.015356036
31	0x3c7671d1	0.015041784
32	0xbba0bd56	-0.004905383
33	0xbcfafe53	-0.03063885
34	0x3d51fa28	0.05126396
35	0x3d0881d2	0.03332693
36	0x3d748b03	0.059702884
37	0x3c572a6f	0.013132676
38	0xbceafff0	-0.028686494
39	0x3d5b8b36	0.05359956
40	0x3bd0ea87	0.006375614
41	0x3d136bf8	0.03599164
42	0xbd337e99	-0.043821905
43	0xbc7943d0	-0.015213922
44	0xbd201015	-0.039077837
45	0xbc340d21	-0.010989458
46	0x3cecea08	0.028920189
47	0xbd1b1eda	-0.03787122
48	0x3c2dd61c	0.01061013
49	0x3d11e4ef	0.03561872
50	0x3c1f7303	0.009732011
51	0xbd50ce90	-0.050978243
52	0xbcd9e98d	-0.026600624
53	0x3b863595	0.004095743
54	0x3d3bfd89	0.045896087
55	0x3d37b2b2	0.04484815
56	0x3ca46752	0.020068798
57	0x388bbd57	6.663304e-05
58	0x3caf5164	0.021401115
59	0xbd7ea447	-0.062168386
60	0xbd30118b	-0.04298548
61	0x3cf1d5fd	0.029520983
62	0xbc8cbd5d	-0.01718014
63	0x3d06b41e	0.032886617
64	0xbcde244a	-0.027116913
65	0xbd166ed4	-0.036726788
66	0xbd9da2e6	-0.07697086
67	0x3d32e022	0.04367078
68	0x3c8dbabc	0.017300956
69	0x3d5d135b	0.053973537
70	0xbb9371b0	-0.0044996366
71	0xbd2ef5bd	-0.042714823
72	0xbcf00b69	-0.029302316
73	0xbd012557	-0.03152975
74	0xbd2da51c	-0.04239379
75	0xbc06ed95	-0.008235355
76	0x3cb1a052	0.021682892
77	0xbd4dccfa	-0.05024431
78	0x3d37879c	0.04480706
79	0x3c7bc858	0.01536759
80	0xbd601ffa	-0.054717995
81	0xbc98918d	-0.018624092
82	0x3d2b5ce1	0.041836623
83	0x3d41bc58	0.04729876
84	0xbc9098f6	-0.017651062
85	0x3ce7497e	0.028233286
86	0x3d3cb60e	0.04607206
87	0x3cca0c7c	0.024664156
88	0x3cefb53b	0.029261222
89	0xbb9ce285	-0.0047877454
90	0x3c476386	0.012169724
91	0x3d326ca9	0.043560658
92	0xbce41b94	-0.027845182
93	0xb8db399c	-0.00010453464
94	0xbbec69db	-0.0072147674
95	0x3c731545	0.014836614
96	0xbb99835b	-0.0046848482
97	0xbc4f6586	-0.012658482
98	0x3be7662a	0.0070617395
99	0x3bee17f1	0.0072660376
100	0xbcb757f6	-0.02238081
101	0x3c3aa195	0.011391063
102	0x3ccc4352	0.024934445
103	0xbb8bdd0e	-0.004268295
104	0x3cc5dfa4	0.024154492
105	0xbc261acf	-0.010138228
106	0x3b107090	0.0022039749
107	0xbd20b73a	-0.03923724
108	0xbc34df79	-0.011039608
109	0xbc9d8a14	-0.01923088
110	0x3d7119d1	0.05886251
111	0xbc34b3be	-0.011029182
112	0x3b077a0b	0.0020672109
113	0xbbc4584f	-0.0059919725
114	0x3d40449a	0.046940424
115	0x3d76de95	0.060270865
116	0xbd038853	-0.03211243
117	0xbd318cf4	-0.043347314
118	0xbca1364a	-0.019679207
119	0xbc05508c	-0.00813688
120	0xbbac76bd	-0.005263178
121	0xbd0372eb	-0.032092016
122	0x3bacc2d5	0.005272249
123	0x3c9c8d03	0.019110208
124	0xbd131c0f	-0.03591543
125	0x3c56a272	0.013100253
126	0xbc37aa61	-0.011210055
127	0xbd058d72	-0.032605596
128	0x3b12c048	0.002239244
129	0x3d1f8683	0.03894664
130	0xbd0ca2ec	-0.034335062
131	0x3c7db462	0.015484901
132	0xbcc19b07	-0.023633493
133	0x3d19cadb	0.037546974
134	0xbd43be7e	-0.04778909
135	0xbd580f23	-0.05274881
136	0x3d5fc8b5	0.05463477
137	0xbd1d4a73	-0.03840108
138	0x3b9e233c	0.0048259776
139	0xbaca4f2d	-0.0015434973
140	0xbb8aad6a	-0.0042320983
141	0x3be3e2ed	0.006954542
142	0x3ccaccd9	0.024755882
143	0xbbe27d96	-0.0069119437
144	0xbd55ffdd	-0.052245963
145	0xbcc52e41	-0.024069907
146	0xbca32514	-0.019915141
147	0x3ced1e80	0.028945208
148	0xbd1f6121	-0.03891099
149	0x3d26043f	0.040531393
150	0x3be3dc90	0.0069537833
151	0xbb66823a	-0.0035172836
152	0x3d527dd0	0.051389515
153	0x3c62171e	0.013799457
154	0x3cc80659	0.02441709
155	0x3d3b7ea6	0.04577508
156	0xbbe45e9d	-0.0069692866
157	0xbcd39d48	-0.025831833
158	0xbbc218be	-0.0059233597
159	0x3d1deb56	0.038554512
160	0xbb630694	-0.0034641372
161	0xbd19589a	-0.037438013
162	0x3d0eed71	0.03489441
163	0x3d6aeb64	0.057353392
164	0xbb94131b	-0.004518879
165	0xbc8b0616	-0.016970675
166	0xbc9d335a	-0.019189525
167	0x3cddab39	0.027059184
168	0x3c452a94	0.012034077
169	0xbcb69ddf	-0.022292076
170	0x3d74b721	0.059744958
171	0x3d9b682e	0.0758823
172	0x3d9a2fb9	0.075286336
173	0x3d805f1f	0.06268143
174	0x3be19acb	0.006884908
175	0xbd056bc6	-0.032573484
176	0xbd60d0cc	-0.054886624
177	0x3cf0c589	0.029391067
178	0x3c8e2379	0.017350899
179	0x3d612a68	0.054972082
180	0xbd4b215c	-0.04959236
181	0x3d8d369d	0.06895182
182	0x3d159f2f	0.036528762
183	0x3d29df8e	0.041472964
184	0xbcd12255	-0.025529066
185	0xbca1fdc2	-0.019774321
186	0xbce57691	-0.028010638
187	0x3d37189f	0.044701215
188	0xbc8a115e	-0.016853984
189	0xbbb9283f	-0.0056505497
190	0x3cd625db	0.026141098
191	0x3c987951	0.018612536
192	0xbc08973d	-0.008336839
193	0x3bfbe908	0.0076876916
194	0xbbd5fde1	-0.006530509
195	0xbd0df3c6	-0.03465631
196	0x3dafea92	0.085896626
197	0x3acf8586	0.001583264
198	0x3d078c2b	0.03309266
199	0x3d541367	0.051776316
200	0x3cf11590	0.029429227
201	0x3c5da0ed	0.013527137
202	0x3cec77b6	0.028865676
203	0xbc7ccfb5	-0.015430381
204	0xbc68ec32	-0.01421647
205	0x3d4c77fb	0.04991911
206	0x3c79d874	0.01524936
207	0xbd33a1b2	-0.043855377
208	0xbc00a42d	-0.007851643
209	0xbd003b75	-0.031306703
210	0x3d4b2688	0.049597293
211	0x3ca22cf7	0.019796832
212	0xbd31d8c3	-0.04341961
213	0xbc596120	-0.013267785
214	0x3ccadb1a	0.024762679
215	0x3c8faa0b	0.017537137
216	0x3cacf0f7	0.021110995
217	0x3c8fe719	0.01756625
218	0x3c25fb52	0.01013072
219	0xbcbce13b	-0.023056617
220	0xbbb21bfa	-0.005435464
221	0xbc926609	-0.01787092
222	0xbcf67c33	-0.03008852
223	0x3c9ce1fd	0.019150728
224	0xbd2997d8	-0.041404575
225	0x3c394386	0.011307603
226	0x3bbecee1	0.0058230017
227	0xbbdcaca3	-0.006734447
228	0xbca9de5d	-0.020735914
229	0x3d89dcfd	0.06731603
230	0xbd331f85	-0.04373123
231	0x3d3a3236	0.04545804
232	0xbd86c32c	-0.06580195
233	0xbb2cb55d	-0.0026353218
234	0x3d238627	0.03992286
235	0xbc48f51c	-0.01226547
236	0x3d0de4b3	0.034641933
237	0xbd41a67f	-0.047277924
238	0xbd4528a7	-0.048134472
239	0xbd0ba669	-0.034094248
240	0x3c8d3864	0.017238803
241	0x3d214c8a	0.039379634
242	0xbcdf889a	-0.027286816
243	0x3cfc597b	0.030804386
244	0xbd2ea646	-0.04263904
245	0xbcfa48a5	-0.030552218
246	0xbbf44efc	-0.0074557047
247	0xbd38a266	-0.04507675
248	0x3c6f509b	0.01460662
249	0x3d1fe924	0.0390407
250	0xbc301be7	-0.01074884
251	0x3d0a4fe1	0.033767585
252	0xbc1097cc	-0.008825254
253	0x3d5c22cd	0.053744126
254	0xbd45ad32	-0.048260875
255	0xbca8f79c	-0.020625882

cnn2.bias f4 [32]
0	0xbc7c44dd	-0.015397278
1	0xbd1f0e45	-0.038831968
2	0xbd24d1fb	-0.040239315
3	0x3c831ec6	0.016005885
4	0xbd16c5b3	-0.036809634
5	0xbc3a6e45	-0.011378829
6	0xbc59ae18	-0.013286136
7	0xbcd26402	-0.025682453
8	0xbcc58f52	-0.024116192
9	0xbd1ccbfd	-0.038280476
10	0xbc4891d0	-0.012241796
11	0x3d069757	0.032859173
12	0x3d3776c8	0.044791013
13	0x3d078d72	0.033093877
14	0x3cd0d11f	0.025490342
15	0x3d82b157	0.06381481
16	0x3d6eb1aa	0.058274902
17	0xbc5027d5	-0.012704809
18	0x3cc8af50	0.024497658
19	0xbc120ba8	-0.008913912
20	0xbd04a854	-0.032387093
21	0x3d6c42ff	0.05768108
22	0x3d2c9541	0.042134527
23	0xbbd54368	-0.0065082796
24	0x3d2c4d43	0.04206587
25	0xbb8c5da9	-0.004283626
26	0x3d005861	0.031334285
27	0x3cb1f9d5	0.021725575
28	0x3cbe6e16	0.023245852
29	0x3d05eeeb	0.032698553
30	0x3d081f42	0.033232935
31	0x3c7c7a00	0.015409946

fc1.weight f4 [2, 512]
0	0x3d12b3ce	0.035816006
1	0xbd35664c	-0.04428701
2	0x3d65049b	0.055912595
3	0x3d4d92ed	0.050188947
4	0x3d6be514	0.057591513
5	0x3c54afb1	0.012981341
6	0xbd2f2c1e	-0.042766683
7	0x3daf6f86	0.08566193
8	0xbccb5fa1	-0.024825873
9	0xb98db9ba	-0.00027031993
10	0x3d51ddf0	0.051237047
11	0x3d4964fc	0.04916857
12	0xbe320a8b	-0.17386834
13	0xbd025700	-0.03182125
14	0xbcb04206	-0.021515857
15	0xbd8a568c	-0.06754789
16	0xbd4142ac	-0.047182724
17	0xbc3f4c87	-0.01167596
18	0xbd005570	-0.03133148
19	0xbe029008	-0.12750256
20	0xbc82fd7f	-0.015990017
21	0x3c7c6a14	0.01540615
22	0xbbcde535	-0.006283427
23	0xbd634fa0	-0.05549586
24	0x3ca6ea89	0.020375507
25	0xbc001fc0	-0.00782007
26	0x3d1d6b21	0.038432244
27	0x3d973a26	0.07384138
28	0xbcf20002	-0.02954102
29	0xbc5d93eb	-0.013524036
30	0x3d01445d	0.031559337
31	0x3da57d70	0.08080566
32	0x3d0aada6	0.03385701
33	0x3c0364ca	0.008019635
34	0x3af96668	0.0019027712
35	0x3b144e7a	0.0022629783
36	0x3d9374e0	0.072000265
37	0x3d63dcf0	0.055630624
38	0xbd116e0e	-0.035505347
39	0x3d51df77	0.051238503
40	0x3dc96364	0.098334104
41	0xbcb7950c	-0.022409938
42	0xbda2cc9b	-0.07949182
43	0xbc9a301f	-0.018821774
44	0xbbb41ed4	-0.005496839
45	0x3ce43f50	0.027862221
46	0xbd241f78	-0.040069073
47	0xbd3e524e	-0.04646521
48	0x3d4465b0	0.04794854
49	0x3de0c05d	0.109741904
50	0x3db4d583	0.08829787
51	0x3d15b204	0.036546722
52	0x3cb3deaa	0.02195676
53	0x3d86409d	0.06555293
54	0x3d1f9ac9	0.038965974
55	0x3dbdcedc	0.09267971
56	0x3cbdd128	0.023171023
57	0x3d38ec0c	0.045146987
58	0x3d3470ba	0.044052817
59	0x3d40ab6f	0.04703849
60	0xbd41f73c	-0.04735492
61	0xbd7abfab	-0.061217945
62	0xbd376e7c	-0.0447831
63	0x3d4fc6d5	0.05072673
64	0xbd06783d	-0.032829512
65	0xbd358334	-0.04431458
66	0x3ce54f92	0.027992044
67	0x3cae9895	0.021312991
68	0xbba08727	-0.004898924
69	0xbc763ae0	-0.015028685
70	0xbd1386bd	-0.03601717
71	0xbd74167b	-0.05959175
72	0xbd0b6d6d	-0.034039903
73	0xbd0912aa	-0.033465065
74	0xbd0de674	-0.034643605
75	0x3cc6ebbe	0.024282333
76	0xbd0462c9	-0.03232077
77	0x3ca6d5c1	0.020365598
78	0x3cef6005	0.02922059
79	0x3c19c453	0.009385186
80	0x3c98e6dd	0.018664772
81	0x3ce1d826	0.027568888
82	0xbd242733	-0.040076446
83	0x3d19d698	0.03755817
84	0x3d49b047	0.049240377
85	0x3d2cbc6d	0.042171884
86	0xbc8d5499	-0.017252253
87	0x3ce50822	0.02795798
88	0xbc62e02c	-0.013847392
89	0x3be14450	0.0068745986
90	0x3d176213	0.036958765
91	0x3c1d5523	0.009602818
92	0x3ac903fa	0.0015336268
93	0xbc54b5eb	-0.012982826
94	0xbcaefd40	-0.021360993
95	0x3d137986	0.036004566
96	0xbd20bee2	-0.03924454
97	0x3c52a375	0.012856354
98	0x3cfc754b	0.030817648
99	0xbd7bc04f	-0.061462697
100	0xbd0cb4a6	-0.034351967
101	0xbd8cfd9e	-0.06884311
102	0xbd418319	-0.047244165
103	0xbc6b0547	-0.01434452
104	0x3c84e4fb	0.016222468
105	0xbdb1b13e	-0.086763844
106	0xbce1db6b	-0.027570447
107	0xbdc89f12	-0.09795965
108	0x3d2d6285	0.042330284
109	0xbdcfd88a	-0.101487234
110	0xbd9b178e	-0.07572852
111	0xbd259f67	-0.04043522
112	0xbcc68292	-0.024232183
113	0x3d020b05	0.03174879
114	0x3c997fb4	0.018737651
115	0x3d0a21e1	0.033723716
116	0x3cff380a	0.031154651
117	0xbcb4d40c	-0.022073768
118	0x3cb08a68	0.021550372
119	0x3d4e7952	0.05040867
120	0xbc263e9c	-0.010146763
121	0xbb6d0f80	-0.0036172569
122	0x3b892032	0.004184746
123	0xbd7725ba	-0.060338713
124	0xbb9a1eb0	-0.0047033653
125	0xbbad3ed0	-0.005287029
126	0xbd03848e	-0.032108836
127	0x3d1fddd7	0.039029922
128	0xbda608d7	-0.08107155
129	0xbe0b4d88	-0.13603795
130	0x3da44f9a	0.08022995
131	0x3e1f266b	0.15541999
132	0xbbe6dce4	-0.007045375
133	0xbdd125e5	-0.10212306
134	0x3c589757	0.013219676
135	0x3c9864a6	0.01860268
136	0xbc879463	-0.016550248
137	0xbd67db0e	-0.05660539
138	0x3ca6040d	0.020265603
139	0xbd5fa14f	-0.054597195
140	0x3d8497fd	0.06474302
141	0x3d2345c7	0.039861467
142	0x3c112206	0.0088582095
143	0xbde23457	-0.11045139
144	0xbd9e8d66	-0.07741813
145	0x3d372708	0.044714957
146	0x3c145072	0.009052383
147	0x3ba5c5fb	0.0050590015
148	0xbd897ffd	-0.06713865
149	0xbcdcc9e4	-0.026951738
150	0x3c9a831d	0.018861348
151	0x3a809855	0.0009811023
152	0xbd2d57cb	-0.042320054
153	0xbcb5f94f	-0.022213606
154	0xbd05bf2f	-0.03265303
155	0xbcc51fbb	-0.024062982
156	0xbdabd8cd	-0.08390961
157	0x3d1c870c	0.03821473
158	0xbc405338	-0.011738591
159	0x3b9cd0aa	0.004785617
160	0x3dec01d5	0.11523787
161	0x3da07e3c	0.07836577
162	0x3db1068b	0.08643826
163	0x3ab6a64a	0.0013935056
164	0x3d5d6c5d	0.05405842
165	0xbd92615d	-0.07147477
166	0x3d8c6eb2	0.06857051
167	0xbd229e1b	-0.039701562
168	0xbcc1a387	-0.023637546
169	0xbd55c737	-0.05219194
170	0x3d641984	0.055688396
171	0x3d6eb514	0.05827816
172	0xbdc8795e	-0.09788774
173	0xbdbf57ed	-0.093429424
174	0xbdcf9df5	-0.1013755
175	0xbd103f65	-0.035216708
176	0x3dd42b61	0.10359836
177	0xbc895279	-0.016762959
178	0xbcfbb0ab	-0.03072389
179	0x3c2ee5ed	0.010674936
180	0x3daa7ae9	0.083242245
181	0xbd5fcf85	-0.054641265
182	0xbd53b9fb	-0.051691037
183	0xbc19cbca	-0.009386966
184	0xba550e27	-0.0008127414
185	0xbd725e5c	-0.05917202
186	0xbcbcf2b4	-0.023064949
187	0x3c5833f8	0.013195984
188	0xbd654725	-0.05597605
189	0xbd397dd4	-0.045286015
190	0xbd2a351e	-0.041554563
191	0xbd2aa586	-0.04166176
192	0x3d1ca5e3	0.03824414
193	0xbb4c1184	-0.003113837
194	0x3cf7aa11	0.030232461
195	0x3d65d499	0.056110952
196	0xbc7144ce	-0.014725877
197	0xbaf691c3	-0.0018811751
198	0x3d0e4170	0.034730375
199	0x3c71abd2	0.014750438
200	0x3bbd4edd	0.0057772235
201	0xbd97c3e7	-0.07410412
202	0x3cc5769c	0.024104409
203	0x3ced2aad	0.028951013
204	0xbc3e4ce6	-0.011615014
205	0xbe0e1ed9	-0.13878955
206	0x3d0cad82	0.034345157
207	0xbc4661ca	-0.012108276
208	0xbd26938b	-0.04066805
209	0x3db1778a	0.086653784
210	0x3d0e5e68	0.034758
211	0x3da0d8bd	0.078538395
212	0x3d9f69e3	0.07783868
213	0x3dd43ebc	0.10363528
214	0x3d2a2efa	0.041548707
215	0xbc6f576b	-0.014608244
216	0x3d96b0e8	0.07357961
217	0x3cd2769d	0.025691325
218	0x3d2e99be	0.04262709
219	0x3d885a5b	0.06657859
220	0x3e03e237	0.12879263
221	0x3ce0df77	0.027450306
222	0x3db8403c	0.08996627
223	0xbceee64f	-0.029162554
224	0x3bbf81d8	0.005844336
225	0xbd8b8a5a	-0.06813498
226	0x3bfff9af	0.007811747
227	0x3c8ed93c	0.01743757
228	0x3d3f6271	0.04672474
229	0xbd0c2c3f	-0.034221884
230	0x3d07652c	0.03305547
231	0x3d0f9929	0.035058174
232	0x3d41d55d	0.04732262
233	0xbd870a1d	-0.06593726
234	0x3dac77a4	0.08421257
235	0x3cbb7dd0	0.02288714
236	0x3d00186f	0.0312733
237	0xbd25c906	-0.040474914
238	0x3dc2e328	0.09515983
239	0x3dc2e69b	0.09516641
240	0x3d9b4ed5	0.075833954
241	0xbd90f7bd	-0.07078502
242	0x3db695b1	0.0891527
243	0xbd97022d	-0.07373462
244	0x3de7b3d8	0.11313599
245	0xbdb1dfa4	-0.08685234
246	0x3dc61aef	0.09673106
247	0xbdb5abdf	-0.088706724
248	0x3e0d4aec	0.13798112
249	0xbdb06e6c	-0.08614811
250	0x3dc38016	0.09545915
251	0xbe05fa65	-0.13083799
252	0x3e11711a	0.14203301
253	0xbd431810	-0.04763037
254	0x3e41813a	0.18896952
255	0xbd8a6a24	-0.06758526

fc1.bias f4 [2]
0	0x3c9718d2	0.018444452
1	0x3b1c300b	0.0023832347
