wandb/run-20220629_093503-3snildhc/files/model.pt (torch, 59031 bytes, 6 tensors)

cnn1.weight f4 [16, 1, 5, 5]
0	0x3d3e2f74	0.046431974
1	0x3e7daa3a	0.24771968
2	0xbe3e8dcc	-0.18608779
3	0xbe90c7e1	-0.28277496
4	0xbd81a23f	-0.06329774
5	0x3d96a94f	0.07356512
6	0x3dad8299	0.08472175
7	0x3e616878	0.22012508
8	0xbe050ccb	-0.12993161
9	0x3dc3451b	0.09534665
10	0xbdb5e485	-0.08881477
11	0x3c5728df	0.013132303
12	0xbe4832be	-0.19550607
13	0xbe67fa2e	-0.2265403
14	0xbe099c7d	-0.13438602
15	0xbce95734	-0.028483965
16	0x3e59f045	0.21283062
17	0x3e33d0cb	0.17560117
18	0xbe3bb92e	-0.18332359
19	0xbde20598	-0.11036223
20	0x3dceb00e	0.100921735
21	0x3eb910a2	0.36145502
22	0x3d04bef1	0.03240866
23	0x3e2cb8ca	0.16867366
24	0xbcd06f8f	-0.02544382
25	0x3cd4cb64	0.02597589
26	0x3e6ec152	0.23315933
27	0xbe71e8e7	-0.23624001
28	0xbe1aa2c6	-0.15101156
29	0xbd62810d	-0.055298854
30	0xbdc9c447	-0.0985189
31	0x3e5f3dee	0.21800968
32	0xbe160221	-0.1464925
33	0xbde3db6f	-0.11125838
34	0xbe10cad5	-0.14139874
35	0xbe553e56	-0.2082456
36	0xbdc75bd6	-0.09734313
37	0x3e24f300	0.16108322
38	0x3da67db6	0.08129446
39	0x3dde7822	0.10862757
40	0x3a85473a	0.0010168322
41	0xbda1481a	-0.078750804
42	0x3d37d9bc	0.044885382
43	0xbe3f27d7	-0.18667541
44	0xbe1002b7	-0.14063536
45	0xbde77629	-0.11301834
46	0x3e21fb4d	0.1581852
47	0x3e096153	0.13416032
48	0xbd9b4fb7	-0.07583564
49	0xbbbb9ace	-0.0057252413
50	0x3e08d4fb	0.13362496
51	0x3e8ae48d	0.27127495
52	0x3d8b3d24	0.06798771
53	0x3d0b75cf	0.034047898
54	0x3e29f8a7	0.1659876
55	0xbe2f6ea5	-0.17132051
56	0x3ceaeca1	0.028677287
57	0xbe8eb93f	-0.27875707
58	0xbe44c57b	-0.19215958
59	0xbdebb66d	-0.11509404
60	0x3da9d7db	0.08293124
61	0x3df62fc3	0.120208286
62	0xbe772e80	-0.24138832
63	0x3ce7779f	0.028255282
64	0x3dea4a75	0.11439983
65	0x3c0acad6	0.008471211
66	0x3d80ba31	0.06285513
67	0xbc466367	-0.01210866
68	0x3e464c90	0.19365144
69	0x3ea243ab	0.31692252
70	0xbe2ffb93	-0.17185812
71	0xbd95bebf	-0.073117726
72	0x3cb2e9e0	0.021840036
73	0x3e745be4	0.23863178
74	0x3e8d4c8c	0.27597463
75	0x3e8f81c3	0.28028688
76	0x3e1d7dde	0.15380046
77	0xbe8b5dc0	-0.27219963
78	0xbd5b99d7	-0.05361351
79	0xbe851c24	-0.25998032
80	0xbe20e244	-0.15711313
81	0x3eba7759	0.3641918
82	0x3e5a6a71	0.21329667
83	0xbe87fa7a	-0.26558286
84	0xbdabc9b7	-0.083880834
85	0x3c86458e	0.016390588
86	0x3d937851	0.07200683
87	0xbbd71f3a	-0.006565002
88	0x3de9112b	0.11380228
89	0xbe66c55e	-0.22536227
90	0x3e1ab030	0.15106273
91	0x3e8fefe8	0.2811272
92	0x3e843392	0.25820595
93	0x3d8aad66	0.067713544
94	0xbe9e8964	-0.30964196
95	0xbd73af0b	-0.059493106
96	0x3e7cb8fa	0.24679938
97	0x3dd542ad	0.10413108
98	0xbe48c4a5	-0.19606264
99	0xbe8238a9	-0.25433853
100	0x3e67e6d1	0.22646643
101	0x3e063af4	0.13108426
102	0xbdf1b5a9	-0.11802227
103	0xbd7d521e	-0.06184589
104	0xbe3209a0	-0.17386484
105	0xbc7ba16f	-0.015358313
106	0xbe2a0b19	-0.16605796
107	0xbe4f5456	-0.20247015
108	0xbd54b7d2	-0.051933117
109	0x3d6a1690	0.057150424
110	0xbdbd59f8	-0.09245676
111	0x3e048d9b	0.12944643
112	0xbdfada77	-0.122487
113	0x3e317d8e	0.17333052
114	0x3e34ea21	0.17667438
115	0xbe29aead	-0.1657054
116	0xbd10a15b	-0.03531013
117	0x3c765111	0.015033976
118	0x3cb51e79	0.022109257
119	0x3db6a7e3	0.089187406
120	0x3da3b72c	0.07993922
121	0x3c92bb00	0.017911434
122	0xbdfc5478	-0.12320799
123	0x3d99e453	0.075142525
124	0xbe16efab	-0.14739864
125	0xbe090ebd	-0.13384528
126	0xbd8c8585	-0.06861404
127	0xbe1ba553	-0.15199785
128	0xbd90f006	-0.07077031
129	0xbe297fa0	-0.16552591
130	0xbd10192f	-0.035180267
131	0x3d45908d	0.048233557
132	0xbe211e38	-0.15734184
133	0xbbf6b44d	-0.0075288177
134	0x3e256375	0.16151221
135	0x3b87f9a3	0.004149632
136	0x3ceebb1b	0.029141953
137	0xbc3589a8	-0.011080183
138	0x3d971b9e	0.073783144
139	0x3e29abf2	0.16569498
140	0x3e5885b7	0.21144758
141	0x3e2950d5	0.16534741
142	0x3e6d156e	0.23152706
143	0xbc410ee4	-0.011783335
144	0xbe426b87	-0.18986331
145	0xbd9bf0ee	-0.07614313
146	0x3e22c22d	0.15894385
147	0x3cfd8e7e	0.030951735
148	0xbdc8af1a	-0.09799023
149	0xbe316e0b	-0.17327134
150	0xbe686a19	-0.22696723
151	0xbe54ff1c	-0.20800442
152	0xbd831728	-0.06400901
153	0x3e126e80	0.14299965
154	0x3e0f52d8	0.13996446
155	0xbe60d4f0	-0.21956229
156	0x3db4ab87	0.08821779
157	0xbe37c38c	-0.17945689
158	0xbce17647	-0.02752222
159	0xbd958050	-0.07299864
160	0xbd512942	-0.051064737
161	0xbd9b961d	-0.07596991
162	0xbe4e2755	-0.20132191
163	0xbe2be4b0	-0.16786456
164	0xbd321f92	-0.04348714
165	0xbc271eb8	-0.010200195
166	0xbde9100d	-0.113800146
167	0x3dace36c	0.08441815
168	0xbe3b625b	-0.18299238
169	0xbd52992a	-0.0514156
170	0x3e23dea7	0.16002904
171	0xbde3f168	-0.11130029
172	0x3e46ea7b	0.19425385
173	0x3d84c11e	0.06482147
174	0xbe630664	-0.22170407
175	0x3e59715b	0.21234648
176	0x3c8a9a50	0.016919285
177	0xbcf8616e	-0.030319896
178	0x3ea71eb2	0.32640606
179	0xbe241f33	-0.16027527
180	0x3d88c305	0.06677822
181	0xbd795b2d	-0.060877968
182	0x3e309b4a	0.17246738
183	0x3e234a41	0.15946294
184	0x3e087e9e	0.1332955
185	0x3deb9dde	0.1150472
186	0xbdc75646	-0.09733252
187	0xbdb92e27	-0.09042006
188	0xbe4cb134	-0.19989473
189	0x3ddd66d3	0.10810628
190	0x3e3f8c7f	0.18705939
191	0x3de733af	0.11289155
192	0xbe694553	-0.22780351
193	0xbd4c1380	-0.049823284
194	0xbe2c2385	-0.16810425
195	0xbe361063	-0.17779689
196	0xbe1b1649	-0.1514522
197	0x3b537863	0.00322678
198	0xbe499027	-0.19683896
199	0xbce0719b	-0.027397921
200	0x3d424c65	0.047436137
201	0x3e3ff999	0.18747558
202	0xbe6186c8	-0.22024071
203	0xbe371594	-0.17879325
204	0xbe722c2d	-0.23649664
205	0x3e5daf27	0.21648847
206	0x3d01904f	0.031631764
207	0x3e819099	0.25305632
208	0x3e191f95	0.14953454
209	0x3ba82955	0.0051318803
210	0x3d282714	0.041052893
211	0xbcb7d0f5	-0.022438506
212	0x3c90f8da	0.017696787
213	0xbc828c46	-0.015936028
214	0xbda701c1	-0.081546314
215	0x3d34a0a3	0.044098508
216	0xbe089a88	-0.13340199
217	0xbde598f0	-0.11210811
218	0x3e72a64a	0.23696247
219	0xbe677c04	-0.22605902
220	0x3c852901	0.016254904
221	0x3e9353af	0.28774783
222	0x3dde9a08	0.10869223
223	0x3d9d3834	0.076767355
224	0xbe6b1568	-0.22957385
225	0x3e0233c6	0.12715062
226	0xbe0b7d8a	-0.13622108
227	0xbe247725	-0.16061075
228	0xbccf3e6e	-0.025298323
229	0xbc04b3ba	-0.008099491
230	0x3bb24c1c	0.005441202
231	0x3e8a23dc	0.26980484
232	0xbe23a9fe	-0.15982816
233	0x3e661d98	0.22472227
234	0x3e5fac18	0.21842992
235	0xbde8a6da	-0.113599494
236	0x3e674e5f	0.2258849
237	0xbea5e956	-0.32404584
238	0xbda4d6e1	-0.080487974
239	0x3e244951	0.16043593
240	0x3d9fa14b	0.07794436
241	0x3e75b149	0.2399341
242	0xbe810541	-0.2519932
243	0xbd541cb7	-0.051785197
244	0x3e15c414	0.14625579
245	0xbe659dd2	-0.22423485
246	0x3e78292e	0.24234459
247	0xbeb9c1c0	-0.36280632
248	0xbd5ff0f9	-0.05467317
249	0x3c2ea10a	0.010658512
250	0xbe30d699	-0.17269363
251	0x3c7350a6	0.014850771
252	0x3ea214cd	0.31656495
253	0xbd704189	-0.05865625
254	0xbdf783d2	-0.120856896
255	0xbe19ad00	-0.150074

cnn1.bias f4 [16]
0	0x3e383045	0.17987163
1	0x3d6e5e48	0.058195382
2	0xbdfaae55	-0.122402824
3	0x3e4e4960	0.20145178
4	0x3db9901b	0.09060689
5	0xbe1258b9	-0.14291658
6	0x3e8cfb46	0.27535456
7	0x3e60fe6c	0.21972054
8	0xbb2b8f3f	-0.002617791
9	0x3e4dc95c	0.20096344
10	0xbd052f09	-0.03251556
11	0xbd04bb70	-0.032405317
12	0x3e6bac7b	0.23015015
13	0xbd94deaa	-0.07269032
14	0xbda861d7	-0.082217865
15	0xbe444be5	-0.19169576

cnn2.weight f4 [32, 16, 5, 5]
0	0x3c33b1af	0.010967656
1	0xbc3db0b5	-0.011577775
2	0x3b8fc76e	0.0043877875
3	0x3db1c582	0.0868025
4	0xbb645d70	-0.0034845732
5	0xbc63dee3	-0.013908121
6	0xbc899634	-0.016795255
7	0x3c9303f2	0.017946217
8	0x3d9299a4	0.07158211
9	0xbd25e0e2	-0.040497668
10	0x3b2af3a0	0.0026085153
11	0xbd2c6ea1	-0.04209769
12	0xbd6104e8	-0.05493632
13	0x3c13efcd	0.009029341
14	0xbcfc2b10	-0.030782253
15	0x3c0a55b0	0.008443281
16	0x3d1ad063	0.03779639
17	0xbd4c293d	-0.049844015
18	0xbd83ddfb	-0.06438824
19	0xbcd198c4	-0.02558554
20	0xbb039074	-0.0020075114
21	0xbd152c93	-0.036419462
22	0xbc5fa848	-0.013650961
23	0xbdad7b91	-0.08470834
24	0xbd86ceef	-0.06582438
25	0xbd1a88f3	-0.03772826
26	0xbbf7100d	-0.007539755
27	0x3ce6c587	0.02817036
28	0xbd4f2c2a	-0.050579228
29	0x3d6f42ed	0.058413435
30	0xbc4a9e04	-0.012366775
31	0x3c96cdb2	0.01840863
32	0xbc409fbe	-0.0117568355
33	0xbce2047a	-0.027590025
34	0x3d678492	0.056522913
35	0x3d162471	0.036655847
36	0x3d809a35	0.06279413
37	0x3c3c0ccb	0.011477659
38	0xbcfc6af2	-0.030812714
39	0x3d703d5f	0.058652278
40	0x3c0a509d	0.008442071
41	0x3d21b77a	0.039481618
42	0xbd2ed19d	-0.04268037
43	0xbc872eea	-0.016501863
44	0xbd12fd3f	-0.035886046
45	0xbc06100d	-0.008182538
46	0x3d1b278c	0.03787951
47	0xbd03c9b5	-0.032174785
48	0x3c19cce1	0.009387226
49	0x3d1ae71c	0.03781806
50	0x3c09edc2	0.008418502
51	0xbd2941f1	-0.041322652
52	0xbc9812f9	-0.018563734
53	0x3c87818d	0.016541267
54	0x3d6edcfc	0.058316216
55	0x3cfcd9b3	0.030865526
56	0x3c950b7c	0.018193953
57	0xbac74e71	-0.0015205872
58	0x3cb96bad	0.022634352
59	0xbd8372e6	-0.064183995
60	0xbd4fd8e7	-0.050743964
61	0x3d04508c	0.032303378
62	0xbc87b50e	-0.016565826
63	0x3d1637da	0.036674358
64	0xbc70d2ac	-0.014698666
65	0xbd4b4461	-0.049625758
66	0xbdc839bb	-0.09776636
67	0x3d0055e6	0.03133192
68	0x3c84f3f4	0.016229607
69	0x3d63fc91	0.055660788
70	0xbca9bb4b	-0.020719191
71	0xbd904687	-0.07044702
72	0xbd58fa78	-0.05297324
73	0xbd08847d	-0.033329476
74	0xbd51897e	-0.051156513
75	0xbc86ffce	-0.016479399
76	0x3c6b8501	0.014374972
77	0xbd3b5f02	-0.045744903
78	0x3d72c202	0.05926705
79	0x3c392e3f	0.01130253
80	0xbd728363	-0.05920733
81	0xbbe229d9	-0.0069019613
82	0x3d475b57	0.048671093
83	0x3d6efe29	0.058347855
84	0xbc49951b	-0.012303616
85	0x3cfa5899	0.030559825
86	0x3d68b732	0.056815334
87	0x3cf33dde	0.029692587
88	0x3d1e78db	0.038689476
89	0x3b3685ac	0.002785067
90	0x3cafa810	0.021442443
91	0x3d8106a8	0.06300098
92	0xbcd567d2	-0.026050482
93	0xbba17976	-0.0049278094
94	0x3a46e04c	0.00075865234
95	0x3c95a835	0.018268684
96	0x3a04c5ee	0.0005064894
97	0xbbf10530	-0.0073553547
98	0xbb698fc3	-0.0035638667
99	0xbb225134	-0.002476764
100	0xbcdb5972	-0.02677605
101	0x3c404128	0.011734284
102	0x3cc2942f	0.0237523
103	0xbb0cb45d	-0.002146981
104	0x3cf843d9	0.03030579
105	0xbc42cab2	-0.011889147
106	0xba8981ff	-0.0010491012
107	0xbd19442a	-0.037418522
108	0xbbfd2c7d	-0.0077262507
109	0xbc8f7357	-0.017511053
110	0x3d730d67	0.059338953
111	0xbc0b023d	-0.00848442
112	0x3b9d8b2a	0.0048078494
113	0x398c66a9	0.0002677937
114	0x3d40b0c0	0.047043562
115	0x3d7243bf	0.05914664
116	0xbd01f91d	-0.031731714
117	0xbd361c3b	-0.044460516
118	0xbc8adacb	-0.016950032
119	0xbc0cc91f	-0.008592873
120	0xbbd5ccc6	-0.006524655
121	0xbcea5f72	-0.028609965
122	0x3c8bd78b	0.017070552
123	0x3cc3640b	0.023851415
124	0xbd196021	-0.03744519
125	0x3c20ab55	0.009806474
126	0xbc7477da	-0.014921153
127	0xbd1b79d9	-0.037958
128	0xbb29dd11	-0.002591912
129	0x3d0974f4	0.0335588
130	0xbd0eb371	-0.034839097
131	0x3cb683bf	0.022279618
132	0xbcc17940	-0.023617387
133	0x3d17a94b	0.037026685
134	0xbd335524	-0.04378237
135	0xbd56bc64	-0.052425757
136	0x3d68e7db	0.05686174
137	0xbd1fdc58	-0.039028496
138	0x3b623e3a	0.0034521953
139	0x393e4b78	0.00018147926
140	0xba6c76ce	-0.0009020389
141	0x3c70a6a0	0.014688164
142	0x3cdbe7a8	0.02684386
143	0xbbd5bc66	-0.006522703
144	0xbd52742c	-0.05138032
145	0xbcb0f34f	-0.021600394
146	0xbcb56d0d	-0.022146726
147	0x3cef2d4d	0.029196406
148	0xbd265734	-0.040610507
149	0x3d1811e7	0.037126448
150	0x3c453d6a	0.012038568
151	0xbac92d6b	-0.0015348619
152	0x3d4b593f	0.04964566
153	0x3c3e3258	0.011608683
154	0x3cc1d7a3	0.023662394
155	0x3d54b06d	0.051926065
156	0xbb8aa2fc	-0.004230855
157	0xbcc302fb	-0.023805132
158	0xbbef11de	-0.007295831
159	0x3d1d20e8	0.03836146
160	0x3b0071ab	0.0019599001
161	0xbd0971cd	-0.033555795
162	0x3d2a0e72	0.041517682
163	0x3d7fae3d	0.062422026
164	0xbb0f12d2	-0.0021831286
165	0xbc29b311	-0.010357634
166	0xbc23ad50	-0.009990051
167	0x3d21674b	0.03940515
168	0x3ca3a0c0	0.019974113
169	0xbc9652a1	-0.018349947
170	0x3d915459	0.07096166
171	0x3db58e11	0.08864988
172	0x3db9894b	0.0905939
173	0x3d96a497	0.07355612
174	0x3c85344b	0.016260287
175	0xbcfd483d	-0.030918235
176	0xbd5ecaf6	-0.054392777
177	0x3d094f82	0.03352309
178	0x3c94e42e	0.01817521
179	0x3d81991a	0.0632803
180	0xbd413ee8	-0.047179133
181	0x3d957dd0	0.072993875
182	0x3d13eb81	0.036113266
183	0x3d38407a	0.044983365
184	0xbc7e2ab5	-0.015513112
185	0xbce40555	-0.027834574
186	0xbcd82d26	-0.026388716
187	0x3d5a2f8a	0.053267993
188	0xbc1a480a	-0.0094165895
189	0x3be951ca	0.0071203457
190	0x3d03640b	0.03207783
191	0x3d1fa271	0.038973276
192	0x3c9c3a21	0.019070687
193	0x3ca17ba5	0.019712279
194	0x3b8b053f	0.0042425687
195	0xbcc2d045	-0.023780951
196	0x3dc95e87	0.09832483
197	0x3c6aea42	0.014338078
198	0x3d195559	0.03743491
199	0x3d5f9da7	0.05459371
200	0x3ca4b7a0	0.02010709
201	0x3bdd5239	0.0067541865
202	0x3c9d98de	0.019237932
203	0xbc804ddf	-0.015662132
204	0xbc9eb3de	-0.019372877
205	0x3d54210a	0.05178932
206	0x3cb7e2f0	0.02244708
207	0xbd464189	-0.048402343
208	0xb9eae21a	-0.00044800417
209	0xbce3b64a	-0.027796883
210	0x3d605e4f	0.05477744
211	0x3cd3f4bd	0.025873536
212	0xbd1dc48c	-0.03851752
213	0xbc277c36	-0.010222485
214	0x3ce078f2	0.027401421
215	0x3cd7e915	0.02635626
216	0x3d1984d7	0.0374802
217	0x3ca3301b	0.0199204
218	0x3c471cf1	0.012152896
219	0xbca7559a	-0.02042656
220	0x3a9b55d9	0.0011851146
221	0xbb5c0d70	-0.0033577345
222	0xbcf6557f	-0.030070065
223	0x3c81c140	0.01583922
224	0xbd30a498	-0.04312572
225	0x3badabe1	0.0053000306
226	0x3a987760	0.0011632256
227	0xbc580626	-0.01318506
228	0xbc6f3673	-0.014600384
229	0x3da4ec6a	0.08052905
230	0xbd67265d	-0.05643307
231	0x3d6ce0f7	0.05783173
232	0xbd9221ae	-0.0713533
233	0xbc11bcd0	-0.008895114
234	0x3d5af9b1	0.05346078
235	0xbce1d7b8	-0.027568683
236	0x3d33612a	0.043793835
237	0xbd4638c5	-0.048393983
238	0xbd5d9642	-0.054098375
239	0xbcea4261	-0.028596105
240	0x3c19f7cc	0.009397458
241	0x3d6301ab	0.055421513
242	0xbca3acb4	-0.019979812
243	0x3d163b53	0.03667767
244	0xbd31420f	-0.04327589
245	0xbd28ad33	-0.0411808
246	0xbc7107d6	-0.014711341
247	0xbd28f15e	-0.04124581
248	0x3cb10522	0.021608893
249	0x3d0db890	0.03459984
250	0xbcb7fff5	-0.022460917
251	0x3c9c03c1	0.019044759
252	0x3bd07025	0.006361025
253	0x3d78a3e7	0.060703184
254	0xbd3341b6	-0.04376384
255	0xbd024a9e	-0.03180944

cnn2.bias f4 [32]
0	0xbc0e768c	-0.008695256
1	0xbd2f7fbe	-0.042846434
2	0xbd14ed08	-0.036358863
3	0x3c9112d7	0.017709179
4	0xbd0ebd85	-0.03484871
5	0xbc33d9a1	-0.01097718
6	0xbc7240aa	-0.014785925
7	0xbcc56fcc	-0.02410116
8	0xbc95fccd	-0.018309021
9	0xbd219e9d	-0.039457906
10	0xbc1ca887	-0.009561664
11	0x3d0e6c5b	0.034771305
12	0x3d4525af	0.04813164
13	0x3d2b2fd4	0.04179366
14	0x3d19bc25	0.037532944
15	0x3d9c0a7a	0.07619186
16	0x3d7dd2df	0.06196868
17	0xbbe08609	-0.0068519157
18	0x3cd11092	0.025520597
19	0xbc0cc11f	-0.0085909655
20	0xbce96e87	-0.028495086
21	0x3d883ee4	0.066526204
22	0x3d3a242d	0.045444656
23	0xbc073e84	-0.008254651
24	0x3d2d89d1	0.04236776
25	0xbbc378a7	-0.0059653106
26	0x3d0b617b	0.03402851
27	0x3cd6304a	0.026146073
28	0x3cb95a0e	0.02262595
29	0x3cf53393	0.029931819
30	0x3d2042ba	0.039126135
31	0x3c28eb0f	0.010309949

fc1.weight f4 [2, 512]
0	0x3d11823c	0.03552459
1	0xbccb7e5e	-0.02484053
2	0x3d9d6b86	0.07686524
3	0x3d7b74fd	0.061390866
4	0x3d6c29a5	0.057656903
5	0x3c611093	0.013736862
6	0xbd0b530a	-0.03401474
7	0x3dc0ca3d	0.09413574
8	0xbd1f74cd	-0.03892975
9	0xbb9cdbda	-0.0047869505
10	0x3d6889e2	0.05677212
11	0x3d268420	0.040653348
12	0xbe72bcae	-0.23704788
13	0xbd075c9a	-0.033047296
14	0xbd16af7e	-0.036788456
15	0xbdb42fe3	-0.08798196
16	0xbd6ecfcc	-0.05830364
17	0xbc377826	-0.011198079
18	0xbd367352	-0.04454357
19	0xbe24f418	-0.1610874
20	0xbcbadff3	-0.022811865
21	0x3c85082d	0.01623925
22	0xbc0ede47	-0.008719987
23	0xbd81899a	-0.063250735
24	0x3ca8deaa	0.020613987
25	0xbc1d3231	-0.009594486
26	0x3d32ff17	0.043700304
27	0x3db9ec8d	0.090783216
28	0xbcd96024	-0.026535101
29	0xbc6b0648	-0.014344759
30	0x3d085a4e	0.033289246
31	0x3e03d313	0.12873487
32	0x3d36243b	0.044468146
33	0x3c9bc8c7	0.019016637
34	0x3ba2600b	0.004955297
35	0x3c859239	0.016305076
36	0x3dae2c22	0.085045114
37	0x3d742bf9	0.059612248
38	0xbd20c33a	-0.039248683
39	0x3d57fad9	0.05272946
40	0x3df5a57b	0.119944535
41	0xbccb98bf	-0.024853108
42	0xbdbc8542	-0.092051044
43	0xbd2ae42a	-0.0417215
44	0xbbe94a33	-0.007119441
45	0x3d0f0ca3	0.03492416
46	0xbd4371ae	-0.047715835
47	0xbd621125	-0.05519213
48	0x3d3d6a77	0.04624411
49	0x3dea3fbf	0.1143794
50	0x3dbfb737	0.09361117
51	0x3d79b3d3	0.06096251
52	0x3cb25a4e	0.021771576
53	0x3d84872c	0.064710945
54	0x3d0119c8	0.031518728
55	0x3dc532d5	0.09628836
56	0x3cafe872	0.021473143
57	0x3d352ba3	0.04423107
58	0x3d22812f	0.03967398
59	0x3cf1b8de	0.029507097
60	0xbd29e8be	-0.041481726
61	0xbd6e4599	-0.058171842
62	0xbd3d9274	-0.046282247
63	0x3d5e73ee	0.054309778
64	0xbd278d03	-0.040905964
65	0xbd3aaee5	-0.04557695
66	0x3ce4f3eb	0.02794834
67	0x3c338c07	0.010958678
68	0xbbd59cf0	-0.0065189525
69	0xbc91ed4e	-0.017813351
70	0xbd145f78	-0.03622386
71	0xbd6e3082	-0.05815173
72	0xbd142440	-0.036167383
73	0xbd0e8ef0	-0.034804285
74	0xbd0a6e6e	-0.03379672
75	0x3cf2f4b1	0.029657694
76	0xbd1fdf26	-0.03903117
77	0x3c9c9a22	0.019116465
78	0x3ce92e3a	0.028464425
79	0x3cc1ed99	0.023672866
80	0x3caab0df	0.020836292
81	0x3ce28115	0.027649442
82	0xbd242733	-0.040076446
83	0x3d1a36c6	0.037649892
84	0x3d55f089	0.052231345
85	0x3d2cbc7b	0.042171936
86	0xbc8f2f0e	-0.017478492
87	0x3ce742d5	0.02823011
88	0xbc76ecfb	-0.015071149
89	0x3be14450	0.0068745986
90	0x3d16cfe3	0.03681935
91	0x3c35b542	0.0110905785
92	0xbacdcaea	-0.0015700732
93	0xbc6af251	-0.014339999
94	0xbcb6cc30	-0.022314161
95	0x3d120b55	0.03565534
96	0xbce4cf06	-0.027930748
97	0x3c81e04d	0.015854025
98	0x3d02d4f0	0.031941354
99	0xbcf75768	-0.030193046
100	0xbca61eef	-0.020278422
101	0xbd9444b6	-0.07239668
102	0xbd541795	-0.051780302
103	0xbca407dd	-0.02002328
104	0x3d03e346	0.032199167
105	0xbdb4b5b3	-0.08823719
106	0xbd0edcb1	-0.034878436
107	0xbdcf2d7b	-0.101160966
108	0x3d817b0c	0.063222975
109	0xbde27876	-0.11058132
110	0xbda15a55	-0.078785576
111	0xbcaee3c8	-0.021348849
112	0xbcc61097	-0.024177833
113	0x3d050a98	0.032480806
114	0x3c9ae705	0.018908987
115	0x3d2b088a	0.04175619
116	0x3cfcac0f	0.030843763
117	0xbcb2ec33	-0.021841144
118	0x3ca1dcd1	0.019758614
119	0x3d7f5881	0.062340263
120	0xbc263dfb	-0.010146613
121	0xbb72d46b	-0.003705288
122	0x3b34530c	0.002751532
123	0xbd5906f8	-0.05298516
124	0xbb9e818c	-0.0048372205
125	0xbbb92995	-0.005650709
126	0xbd0d1ad3	-0.03444941
127	0x3d7ad350	0.06123668
128	0xbddc2868	-0.107498944
129	0xbe549b92	-0.2076247
130	0x3e0703ef	0.13185094
131	0x3e3e7b16	0.18601641
132	0xbc201258	-0.0097699985
133	0xbe016c97	-0.1263908
134	0x3d340485	0.043949623
135	0x3ce38a37	0.027775867
136	0xbccc0862	-0.024906341
137	0xbd82f444	-0.06394246
138	0x3d69f499	0.057118032
139	0xbd866b8b	-0.06563481
140	0x3daab99f	0.08336186
141	0x3d780cdc	0.06055914
142	0x3d05318e	0.032517962
143	0xbe22e16e	-0.15906307
144	0xbdaecec1	-0.08535529
145	0x3d38ef04	0.045149818
146	0x3c0e0163	0.008667323
147	0x3ba8cd51	0.0051514287
148	0xbd997d4e	-0.07494603
149	0xbcd55963	-0.0260436
150	0x3c91384d	0.017727042
151	0x3b66b6b9	0.0035204126
152	0xbd2cbadb	-0.042170387
153	0xbcb5ec0d	-0.022207284
154	0xbd070ecd	-0.0329731
155	0xbca848d2	-0.020542536
156	0xbdca56f2	-0.09879865
157	0x3d188d9d	0.037244428
158	0xbc8a60d2	-0.01689187
159	0x3ba8c78d	0.0051507414
160	0x3e179a26	0.14804897
161	0x3dd07a91	0.10179628
162	0x3dec3131	0.1153282
163	0xbbb7c566	-0.0056082485
164	0x3dabc012	0.08386244
165	0xbd4ea11c	-0.050446615
166	0x3ddc7453	0.107643746
167	0xbd658251	-0.056032483
168	0x3b784bce	0.003788698
169	0xbd71888b	-0.05896811
170	0x3d8fca89	0.070210524
171	0x3d956d99	0.07296295
172	0xbdee1c52	-0.116264954
173	0xbdec005c	-0.11523506
174	0xbdf498aa	-0.11943181
175	0xbd4e02aa	-0.05029551
176	0x3e1128a0	0.14175653
177	0x3b770831	0.0037694091
178	0xbd0bc968	-0.034127623
179	0x3c860526	0.016359877
180	0x3df851c9	0.12124974
181	0xbd63b368	-0.055591017
182	0xbd90c0c9	-0.07068021
183	0xbaab46cb	-0.0013067363
184	0x3cad26e5	0.02113671
185	0xbd666c21	-0.056255464
186	0xbc47016a	-0.012146333
187	0x3ce53e93	0.02798394
188	0xbd9fe8b8	-0.078080595
189	0xbd756cf7	-0.05991837
190	0xbd33ada1	-0.043866757
191	0xbd685309	-0.056719813
192	0x3d5f9457	0.054584827
193	0xbac2e29b	-0.0014868559
194	0x3d18623d	0.037203062
195	0x3d9a0079	0.075196214
196	0x3b8ac067	0.004234362
197	0x3b631070	0.0034647249
198	0x3d2fc0dd	0.042908538
199	0x3ccd175a	0.025035549
200	0x3c724949	0.01478798
201	0xbdadbd25	-0.08483342
202	0x3d29e700	0.041480064
203	0x3cc69d20	0.024244845
204	0xbcab6f43	-0.020927077
205	0xbe2da7eb	-0.16958587
206	0x3d26c114	0.040711477
207	0xbcee4b7b	-0.029088726
208	0xbd2d1ce3	-0.042263877
209	0x3da320fe	0.07965277
210	0x3ce34f19	0.027747678
211	0x3d909e0b	0.07061394
212	0x3d9dbc3d	0.07701919
213	0x3dcc6a20	0.09981179
214	0x3d26f13d	0.040757407
215	0xbd1af97d	-0.037835587
216	0x3d95ceb9	0.0731482
217	0x3ca00322	0.019532744
218	0x3d44dfdd	0.048065055
219	0x3d83a04f	0.06427061
220	0x3e05b2a8	0.13056433
221	0x3c1c16c5	0.009526913
222	0x3db11e72	0.08648385
223	0xbce3b262	-0.02779502
224	0xb8ef345f	-0.00011406163
225	0xbdc26026	-0.09490995
226	0x3c43cd9f	0.011950879
227	0x3c17352c	0.009228986
228	0x3d7353f2	0.05940623
229	0xbd465cd7	-0.048428383
230	0x3d713914	0.058892325
231	0x3d7c7002	0.061630256
232	0x3d57b7ea	0.05266563
233	0xbda373f5	-0.079811014
234	0x3dc2292a	0.09480508
235	0x3d161ee0	0.03665054
236	0x3d69e467	0.057102587
237	0xbd46ed1a	-0.04856596
238	0x3ddbf6bf	0.107404225
239	0x3e0762be	0.13221261
240	0x3ddf8c75	0.10915462
241	0xbdbb5b16	-0.09148233
242	0x3dccc0e7	0.09997731
243	0xbda09529	-0.0784095
244	0x3e1c9d44	0.15294367
245	0xbdd9aef0	-0.1062907
246	0x3e074f29	0.13213791
247	0xbde983b2	-0.11402072
248	0x3e35bbd5	0.17747433
249	0xbdc2d1c6	-0.09512667
250	0x3df65d75	0.12029544
251	0xbe26f01f	-0.16302536
252	0x3e5163d9	0.20448245
253	0xbd7fb9cd	-0.062433053
254	0x3e62e2a3	0.22156768
255	0xbdc61d70	-0.096735835

fc1.bias f4 [2]
0	0x3d1e5634	0.03865643
1	0xbc920da0	-0.017828763
