wandb/run-20220629_173854-3rambok4/files/model.pt (torch, 59031 bytes, 6 tensors)

cnn1.weight f4 [16, 1, 5, 5]
0.00863902 0.11975765 -0.15951313 -0.14923733 -0.066895686 0.06174093 0.008472488 0.1641167
-0.020360103 0.0621035 -0.055381477 -0.028857816 -0.18610206 -0.13269894 -0.0763478 0.014016329
0.09153793 0.12862583 -0.13401905 -0.084412396 0.07932168 0.17828321 -0.031181715 0.15558405
-0.027036875 0.021678008 0.18501855 -0.18468839 -0.12555195 -0.051584266 -0.0787523 0.1764583
-0.12680392 -0.09089403 -0.13968663 -0.18763979 -0.11372268 0.17407039 0.0916122 0.0988909
0.010365322 -0.098762706 0.03754787 -0.18436278 -0.14239615 -0.10221338 0.13113579 0.12098495
-0.08699349 -0.0049212016 0.12598063 0.20523886 0.082635894 0.033874508 0.13515222 -0.11654163
0.042632356 -0.15088807 -0.12966731 -0.10229684 0.095702864 0.088275135 -0.11612121 0.06681972
0.109015554 -0.019482063 0.0138894105 0.045663062 0.12865078 0.1950478 -0.15212938 -0.06951992
0.07779673 0.16929899 0.17705941 0.18915224 0.050160527 -0.16659854 0.022667484 -0.12259826
-0.1749423 0.1873809 0.1658785 -0.1930309 0.042173732 -0.022299848 -0.022785323 -0.08041299
0.08778957 -0.114198126 0.08408085 0.1110475 0.15529503 0.08421896 -0.19409537 -0.11814272
0.1079344 0.05385751 -0.14781791 -0.11410078 0.18818735 0.13191836 -0.09352573 -0.05728572
-0.19409335 -0.005517955 -0.15246758 -0.15927076 -0.018749528 0.02507394 -0.08090169 0.119637355
-0.12339539 0.17187332 0.13195486 -0.16621885 -0.046630766 0.008037226 0.020441173 0.042894058
0.079565614 0.014180099 -0.10062588 0.08646132 -0.19454634 -0.11601116 -0.046505697 -0.09586686
-0.06504694 -0.16194783 -0.039378326 0.048739668 -0.12551345 -0.0055053034 0.14288011 -0.017001448
0.00894289 -0.013566469 0.04318531 0.12657516 0.1901894 0.12792812 0.19339664 -0.014250307
-0.18221919 -0.09417861 0.13767557 0.002637215 -0.099315085 -0.15624131 -0.18756373 -0.17110306
-0.042594243 0.110933304 0.10571197 -0.19496693 0.12195972 -0.15886246 -0.040899243 -0.08217543
-0.04114547 -0.041928247 -0.18118988 -0.17020114 -0.030155018 -0.0019727026 -0.0934837 0.07333221
-0.17784843 -0.013594689 0.17155543 -0.085380904 0.17719968 0.07149506 -0.18181603 0.12524796
-0.018916024 -0.08719077 0.16654956 -0.16294678 0.021298924 -0.041412454 0.14661281 0.061697006
0.09573599 0.06902741 -0.050850216 -0.042498235 -0.16638222 0.10873656 0.15658924 0.13207111
-0.14713188 0.005009902 -0.13958757 -0.11393266 -0.11882793 0.061228026 -0.12273219 -0.0038166263
0.017636592 0.13744247 -0.1477876 -0.13395762 -0.11627461 0.14940909 -0.063021384 0.17755517
0.0824035 0.028217236 0.0029501074 -0.036034916 0.026316363 -0.039133184 -0.00016106779 0.02893506
-0.15383112 -0.103511244 0.16908209 -0.1616934 -0.0076091234 0.20508024 0.07718967 0.014785132
-0.17189166 0.102328695 -0.14200035 -0.062170524 -0.06689184 -0.032052062 7.636469e-06 0.16609198
0.013096609 0.17659374 0.119894475 -0.12376466 0.0916529 -0.15532763 -0.09151408 0.056203216
0.06634081 0.15175053 -0.073692255 -0.011027315 0.09856889 -0.19373626 0.14739168 -0.17603861
-0.008353817 -0.038374584 -0.105797894 0.024828412 0.17030418 -0.05289789 -0.11628649 -0.074324265
00000000: ad8a 0d3c 8043 f53d 6957 23be acd1 18be
00000010: 9b00 89bd 0fe4 7c3d 31d0 0a3c 350e 283e
00000020: 3bca a6bc 3d60 7e3d b0d7 62bd 3a67 ecbc
00000030: 8a91 3ebe 3be2 07be 3c5c 9cbd bfa4 653c
00000040: 3d78 bb3d 7db6 033e 4a3c 09be 68e0 acbd
00000050: 6873 a23d e08f 363e cc70 ffbc 6d51 1f3e
00000060: 707c ddbc 1496 b13c 8175 3d3e f41e 3dbe
00000070: b190 00be 064a 53bd e348 a1bd 7cb1 343e
00000080: e3d8 01be a626 babd 030a 0fbe a524 40be
00000090: 70e7 e8bd 823f 323e 2d9f bb3d 5087 ca3d
000000a0: 50d3 293c 1a44 cabd cccb 193d 99c9 3cbe
000000b0: 4cd0 11be 4055 d1bd 7648 063e f5c6 f73d
000000c0: a529 b2bd 0842 a1bb 1101 013e 232a 523e
000000d0: 023d a93d ffbf 0a3d 5865 0a3e 61ad eebd
000000e0: 449f 2e3d 6782 1abe 82c7 04be 0181 d1bd
000000f0: ddff c33d 98c9 b43d f5d0 edbd c7d8 883d
00000100: 8c43 df3d d998 9fbc 6990 633c 3109 3b3d
00000110: 08bd 033e 9cba 473e cec7 1bbe 7660 8ebd
00000120: e453 9f3d b75c 2d3e 104f 353e 20b1 413e
00000130: 2075 4d3d cf98 2abe 29b1 b93c cc14 fbbd
00000140: 1324 33be c7e0 3f3e 0edc 293e e4a9 45be
00000150: 5dbe 2c3d 2cae b6bc 49a8 babc 91af a4bd
00000160: 05cb b33d b5e0 e9bd 9532 ac3d df6c e33d
00000170: a905 1f3e fd7a ac3d f0c0 46be cff4 f1bd
00000180: b60c dd3d b199 5c3d 945d 17be abad e9bd
00000190: 2fb4 403e 9b15 073e 6b8a bfbd 6ea4 6abd
000001a0: 68c0 46be f6cf b4bb 7620 1cbe e017 23be
000001b0: 9c98 99bc dd67 cd3c c9af a5bd 6e04 f53d
000001c0: b9b6 fcbd 8fff 2f3e 2d1f 073e 4635 2abe
000001d0: e7ff 3ebd 92ae 033c 3f74 a73c aeb1 2f3d
000001e0: 4cf3 a23d a553 683c f114 cebd a212 b13d
000001f0: 2837 47be 4297 edbd c27c 3ebd d855 c4bd
00000200: 5537 85bd a7d5 25be 2b4b 21bd 3fa3 473d
00000210: 9986 00be d565 b4bb 2a4f 123e 9f46 8bbc
00000220: 3385 123c e545 5ebc 14e3 303d eb9c 013e
00000230: 03c1 423e 97ff 023e c509 463e 1f7a 69bc
00000240: ab97 3abe b7e0 c0bd d3fa 0c3e 20d5 2c3b
00000250: b565 cbbd b9fd 1fbe b510 40be a435 2fbe
00000260: 4d77 2ebd 0031 e33d 847f d83d 69a5 47be
00000270: 05c6 f93d d7ac 22be f785 27bd 984b a8bd
00000280: 2788 28bd f4bc 2bbd d789 39be 3549 2ebe
00000290: a807 f7bc 7548 01bb 6274 bfbd 332f 963d
000002a0: e61d 36be 42bc 5ebc 3aac 2f3e 2fdc aebd
000002b0: d573 353e 016c 923d fb2d 3abe 0041 003e
000002c0: c7f5 9abc 1391 b2bd f88b 2a3e 85db 26be
000002d0: 157b ae3c 1ba0 29bd ab21 163e 00b6 7c3d
000002e0: 3b11 c43d 3e5e 8d3d 5148 50bd a112 2ebd
000002f0: 1a60 2abe 46b1 de3d ee58 203e a63d 073e
00000300: bda9 16be 1b2a a43b 0bf0 0ebe 8755 e9bd
00000310: 0f5c f3bd 3dca 7a3d 045b fbbd 5d20 7abb
00000320: 9d7a 903c b8bd 0c3e a255 17be 302c 09be
00000330: 6221 eebd b2fe 183e 5b11 81bd 06d1 353e
00000340: 2bc3 a83d d527 e73c 9756 413b 5999 13bd
00000350: 6a95 d73c 1e4a 20bd 4ee4 28b9 3809 ed3c
00000360: e885 1dbe b4fd d3bd db23 2d3e f492 25be
00000370: f455 f9bb 8e00 523e 9e15 9e3d 573d 723c
00000380: 5e04 30be b591 d13d 8a68 11be 85a6 7ebd
00000390: 97fe 88bd 0649 03bd 621e 0037 0414 2a3e
000003a0: 2993 563c fdd4 343e 3c8b f53d 5378 fdbd
000003b0: 84b4 bb3d 350e 1fbe bc6b bbbd 5835 663d
000003c0: b1dd 873d 7e64 1b3e f7eb 96bd e9ab 34bc
000003d0: 7cde c93d cc62 46be d8ed 163e 7743 34be
000003e0: 73de 08bc ab2e 1dbd 91ac d8bd f464 cb3c
000003f0: 3864 2e3e 75ab 58bd 9c27 eebd 5237 98bd

cnn1.bias f4 [16]
0.13462605 0.020219995 -0.09714987 0.19237614 0.07755997 -0.15222445 0.19098425 0.15770175
-0.064516805 0.115621455 -0.1095731 -0.031378075 0.17485 0.01055632 -0.14168736 -0.07376553
00000000: 69db 093e 67a4 a53c 83f6 c6bd 40fe 443e
00000010: c3d7 9e3d bae0 1bbe 6091 433e 917c 213e
00000020: 6321 84bd f1ca ec3d dd67 e0bd 4c86 00bd
00000030: e10b 333e 6af4 2c3c 7e16 11be 6212 97bd

cnn2.weight f4 [32, 16, 5, 5]
-0.012830403 -0.014634642 -9.210123e-05 0.042558257 0.0027972641 -0.030480603 -0.0014605701 0.020011745
0.021600185 -0.045354046 -0.010567834 -0.03826491 -0.026506374 0.012007105 -0.035037514 0.016426735
0.04442275 -0.00059485895 -0.04151957 -0.021076454 0.010005325 -0.033015233 0.022800457 -0.051312458
-0.05163168 -0.048201956 -0.0107680615 0.03184738 -0.048857506 0.042208176 -0.020243645 0.014640838
0.0010467774 -0.044549447 0.042973775 0.02704732 0.051098492 0.023303142 -0.033833228 0.04307908
0.0023867658 0.025045926 -0.041296307 -0.016562263 -0.0476639 -0.01867103 0.012750197 -0.039481208
0.014791643 0.028299917 0.009031231 -0.03636249 -0.035342023 -0.0114054205 0.025911529 0.050251044
0.026349194 -0.0036447183 0.02239673 -0.047713947 -0.042694245 0.019981908 -0.025199914 0.031965494
-0.031461813 -0.02483099 -0.04971485 0.024934141 0.001221066 0.04193057 0.028073378 0.018493107
-0.0033609837 -0.012476351 -0.0112509 0.0018998676 0.018710561 -0.040639196 0.03906028 -0.0014598377
-0.04530118 -0.029065687 0.040454213 0.04177326 -0.042477164 0.032500494 0.028586594 0.026460748
0.03706526 -0.02428004 0.015635142 0.025328353 -0.016771866 0.009788321 -0.013898544 0.030457715
-0.008466266 -0.016779441 0.0064274543 0.018126195 -0.024036616 0.0028821821 0.02649518 -0.006645627
0.015367155 -0.012476687 0.014367013 -0.03774395 -0.027786396 -0.024366075 0.04725344 -0.014561918
-0.0008079131 -0.022252921 0.048964694 0.050181765 -0.037743542 -0.038487192 -0.033872895 -0.0015658258
-0.012244762 -0.032633636 -0.014737215 0.012178923 -0.027321355 0.011660099 -0.010925125 -0.026866352
0.0032337396 0.0399219 -0.03388566 0.0039785346 -0.020797916 0.043506775 -0.048318405 -0.048593026
0.051181354 -0.033925537 0.006979756 -0.004385666 -0.010593909 -0.009458049 0.030988613 -0.001342808
-0.04965391 -0.02859072 -0.016140632 0.024254313 -0.03542218 0.04469341 -0.009667692 -0.008106608
0.038385674 0.020165568 0.037937034 0.030696454 -0.014378904 -0.033140738 -0.0054569175 0.038430367
-0.01554419 -0.04584378 0.021359317 0.048653483 -0.014625166 -0.038075566 -0.04311109 0.013626949
-0.0038530072 -0.026839871 0.015973574 0.023673927 0.04352875 0.04095028 -0.0072162035 -0.044386584
-0.048894316 0.04342065 0.020188425 0.025315374 -0.04504504 0.046925396 0.04327537 0.042240646
-0.040995583 -0.019984692 -0.031881478 0.047638938 -0.02284067 -0.021236602 0.025745746 -0.017714642
-0.021745278 -0.0040571005 -0.0055593033 -0.03901832 0.04595403 -0.018720178 0.020095497 0.04429489
0.024343837 0.002616399 0.0386631 0.0036782315 -0.021017723 0.04632245 0.0085909 -0.051577494
-0.015655845 -0.033326644 0.044324037 -0.004853756 -0.047509514 -0.006757951 0.030865274 0.013637631
0.017448578 0.005660279 0.015037518 -0.013765026 -0.01695439 -0.0423526 -0.036413185 0.01802351
-0.03181716 0.00824375 0.012761117 0.0020980532 -0.033032704 0.050287332 -0.029692784 0.04025293
-0.045554794 -0.012039938 0.028730042 -0.018904928 0.04176582 -0.03536629 -0.040903058 -0.020356318
0.0059996266 0.045472052 -0.021390243 0.023759507 -0.014667621 -0.0130437 0.03447101 -0.037602436
0.00900172 0.045097377 -0.0069508846 0.039254088 -0.015994098 0.04018782 -0.049133427 -0.008309378
00000000: 9c36 52bc 23c6 6fbc 7926 c1b8 9151 2e3d
00000010: 4e52 373b 75b2 f9bc 9a70 bfba acef a33c
00000020: dff2 b03c 2ac5 39bd b524 2dbc abbb 1cbd
00000030: e523 d9bc 73b9 443c 7f83 0fbd 5c91 863c
00000040: a1f4 353d 4ff0 1bba 6d10 2abd 87a8 acbc
00000050: 60ed 233c fb3a 07bd 06c8 ba3c 032d 52bd
00000060: be7b 53bd 6a6f 45bd 866c 30bc 6672 023d
00000070: cf1e 48bd 7be2 2c3d 00d6 a5bc 20e0 6f3c
00000080: 0534 893a 7b79 36bd 4505 303d 5792 dd3c
00000090: a74c 513d 3be6 be3c b694 0abd b073 303d
000000a0: 496b 1c3b 1d2d cd3c 5126 29bd 95ad 87bc
000000b0: 393b 43bd fdf3 98bc 34e6 503c 0cb7 21bd
000000c0: a658 723c 3ad5 e73c baf7 133c d6f0 14bd
000000d0: ccc2 10bd cddd 3abc 6a44 d43c 0ad4 4d3d
000000e0: 44da d73c 3adc 6ebb 5979 b73c b36f 43bd
000000f0: 29e0 2ebd 19b1 a33c 0d70 cebc 40ee 023d
00000100: 1ade 00bd 5c6a cbbc cca1 4bbd af42 cc3c
00000110: 2d0c a03a 64bf 2b3d 24fa e53c db7e 973c
00000120: f343 5cbb 9c69 4cbc b255 38bc fa04 f93a
00000130: e446 993c 4975 26bd acfd 1f3d 0658 bfba
00000140: bb8d 39bd 2a1b eebc 51b3 253d 701a 2b3d
00000150: 89fc 2dbd 3d1f 053d 6f2e ea3c 36c4 d83c
00000160: bed1 173d efe6 c6bc 4515 803c 687d cf3c
00000170: 2765 89bc 325f 203c b8b6 63bc 7582 f93c
00000180: 18b6 0abc 0a75 89bc 659d d23b 637d 943c
00000190: 70e8 c4bc fee2 3c3b 6b0c d93c 8fc3 d9bb
000001a0: 85c6 7b3c 056b 4cbc 9f63 6b3c 6699 1abd
000001b0: 4ca0 e3bc 5d9b c7bc d38c 413d 1c95 6ebc
000001c0: 21ca 53ba c24b b6bc 348f 483d 658b 4d3d
000001d0: f998 1abd bfa4 1dbd 4ebe 0abd 653c cdba
000001e0: 419e 48bc d9aa 05bd 5c74 71bc 1b8a 473c
000001f0: 09d1 dfbc 000a 3f3c 4cff 32bc d316 dcbc
00000200: 26ed 533b 2585 233d b1cb 0abd 5e5e 823b
00000210: 6460 aabc 2934 323d 85e9 45bd 7b09 47bd
00000220: 8aa3 513d 81f5 0abd 70b6 e43b a2b5 8fbb
00000230: 1392 2dbc eff5 1abc d5db fd3c 2901 b0ba
00000240: e661 4bbd 1637 eabc 5c39 84bc fbb0 c63c
00000250: d916 11bd 7010 373d 3d65 1ebc 94d1 04bc
00000260: 4c3a 1d3d 4332 a53c dd63 1b3d 2177 fb3c
00000270: 7f95 6bbc 95be 07bd f1cf b2bb 2969 1d3d
00000280: 0fad 7ebc b0c6 3bbd bcf9 ae3c e048 473d
00000290: 649e 6fbc 20f5 1bbd 4195 30bd 9143 5f3c
000002a0: bc82 7cbb 4adf dbbc 03db 823c d3ef c13c
000002b0: 344b 323d 7bbb 273d e775 ecbb b5ce 35bd
000002c0: 6845 48bd dad9 313d 3262 a53c 3062 cf3c
000002d0: 2681 38bd d834 403d 8441 313d 8704 2d3d
000002e0: fcea 27bd f0b6 a3bc 2796 02bd 0c21 433d
000002f0: 5b1c bbbc 62f8 adbc bee8 d23c 4c1e 91bc
00000300: 2723 b2bc 6df1 84bb d12a b6bb add1 1fbd
00000310: 4b3a 3c3d 0f5b 99bc 509f a43c 8f6e 353d
00000320: ba6c c73c e477 2b3b 335d 1e3d 7c0e 713b
00000330: 5c2d acbc 9cbc 3d3d d9c0 0c3c ec42 53bd
00000340: b040 80bc 8581 08bd 1f8d 353d 420c 9fbb
00000350: 5699 42bd cd71 ddbb 2cd9 fc3c 5f70 5f3c
00000360: 52f0 8e3c dd79 b93b ec5f 763c b486 61bc
00000370: efe3 8abc eb79 2dbd fe25 15bd 0aa6 933c
00000380: b652 02bd cb10 073c 0114 513c 7e7f 093b
00000390: 4d4d 07bd 17fa 4d3d 483e f3bc 42e0 243d
000003a0: aa97 3abd 2943 45bc 445b eb3c 82de 9abc
000003b0: a312 2b3d 3edc 10bd f789 27bd 4bc2 a6bc
000003c0: 8498 c43b e740 3a3d 973a afbc 4ca3 c23c
000003d0: 7650 70bc 3eb5 55bc 7931 0d3d 0305 1abd
000003e0: f37b 133c 07b8 383d 3fc4 e3bb e5c8 203d
000003f0: 0e06 83bc fc9b 243d 2240 49bd 0f24 08bc

cnn2.bias f4 [32]
-0.022776946 -0.034506157 -0.046720657 0.006599059 -0.03767037 -0.013656912 -0.012449199 -0.02813514
-0.008611677 -0.037400056 -0.013074798 0.04042609 0.0452075 0.009090178 0.013054015 0.044690005
0.049675927 -0.019914469 0.014543009 -0.009441555 -0.035893254 0.04692468 0.043332774 -7.114302e-05
0.04122958 0.012633601 0.030702049 0.020632433 0.018913046 0.026092133 0.026501488 0.039182756
00000000: b896 babc 5456 0dbd 295e 3fbd eb3c d83b
00000010: 3f4c 1abd 3ec1 5fbc baf7 4bbc aa7b e6bc
00000020: fe17 0dbc cd30 19bd ad37 56bc d495 253d
00000030: 802b 393d f8ee 143c 82e0 553c de0c 373d
00000040: fc78 4b3d ab23 a3bc cd45 6e3c c0b0 1abc
00000050: ce04 13bd 1834 403d b57d 313d 9e32 95b8
00000060: 59e0 283d 2afd 4e3c dd82 fb3c 5905 a93c
00000070: 88ef 9a3c 2bbf d53c a619 d93c 197e 203d

fc1.weight f4 [2, 512]
0.022166006 -0.032233387 0.017055515 0.037190896 0.044279974 0.027300594 -0.023231339 0.04326752
0.011678568 -0.021545187 0.0038598187 0.035284307 -0.039107878 -0.014343163 0.027400339 -0.009203239
-0.01876869 -0.011933399 0.01255819 -0.038512148 0.004369643 0.011447648 0.010202125 -0.002152134
0.021657478 -0.003371889 0.034231156 0.03679716 -0.030537784 -0.00930974 0.032847304 -0.0008997826
-0.011024104 0.0067818146 -0.00049615855 -0.011290935 0.016323365 0.04218903 0.003409957 0.030425346
0.04228084 -0.028792953 -0.036678035 -0.0044388436 0.010388737 -0.0011264988 -0.018387277 -0.03031517
0.015637767 0.04505311 0.016249103 0.045808148 -0.0020833039 0.05693031 -0.016681101 0.052287497
0.022186415 0.05543635 0.045347355 0.007512039 0.0016207588 -0.008605379 0.007088949 -0.009128963
-0.011682363 -0.027481025 0.02760282 0.033501107 0.003533172 -0.00218413 -0.033067606 -0.03998778
-0.0343188 -0.032722313 -0.036264166 0.021423107 -0.033707272 0.02096414 0.029292446 0.00069037534
0.011108593 0.027583364 -0.040076446 0.03817367 0.044148628 0.042171884 -0.017252253 0.027202578
-0.015280145 0.0068745986 0.036958765 0.009259108 0.014374836 -0.01176775 -0.02097815 0.036056083
-0.04009741 0.008004994 -0.005190128 -0.010815413 -0.040436946 -0.027866935 -0.02680281 0.006220612
0.017320689 -0.041360732 -0.016994884 -0.04311865 0.0307197 -0.04262691 -0.0063012363 -0.0104903765
-0.024232183 0.03174879 0.018907491 0.02327298 0.031154651 -0.022073768 0.021381926 0.035723437
-0.010146763 -0.0036172569 0.004181061 -0.044510923 -0.0047033653 -0.005287029 -0.03213059 0.032360777
-0.054203365 -0.039238304 0.019271545 0.038132828 0.001212965 -0.018402286 -0.030922337 -0.016365342
-0.030287534 -0.036808394 -0.02669158 -0.025363052 0.039022036 0.019572282 -0.00046198396 -0.034332413
-0.030782985 0.043276343 0.0058757025 0.0050041936 -0.02642134 -0.023240741 0.021833284 -0.0037213042
-0.0048635784 -0.02177213 -0.032748837 -0.028405571 -0.045640144 0.04044668 0.0061997436 0.0061872527
0.047896527 0.034198444 0.0113132475 0.021165127 0.0143345455 -0.040669307 0.04439957 -0.026577141
-0.019002931 -0.013131669 0.027337886 0.04447079 -0.034084056 -0.044858538 -0.035091184 -0.019840972
0.04988656 -0.007958485 0.0052998173 0.008412494 0.024463391 -0.030443007 -0.007452129 0.01025037
0.011074947 -0.037029374 -0.030481666 0.0335303 -0.0143967215 -0.033120062 -0.043355387 -0.0057737827
0.022415198 -0.009271175 0.030671459 0.024723725 -0.033815805 0.0030960164 0.03835309 0.029652307
-0.013563487 -0.035778217 0.0106644295 0.022896605 -0.0062976736 -0.04282249 0.040738624 0.020621616
-0.031766973 0.020277273 0.002935984 0.05107977 0.040728122 0.03680828 0.008428994 -0.015105136
0.026662016 0.028503925 0.02219794 0.057818867 0.035562526 -0.024804324 0.012216636 -0.008547579
0.011405427 0.0067981845 -0.0119451955 0.017059013 0.040303197 0.0049054734 -0.015380959 -0.018584128
0.039164342 0.007274878 0.0406623 -0.026569284 -0.020601442 -0.023663005 0.03883088 0.036890008
0.010975687 -0.02647687 0.013283253 -0.036998164 0.03497051 -0.029907022 0.021274187 0.0036577547
0.030106187 -0.03356268 0.02811225 -0.0071996003 0.008853635 -0.027490081 0.05143938 -0.01412359
00000000: 7c95 b53c 2807 04bd 02b8 8b3c 7b55 183d
00000010: eb5e 353d 7fa5 df3c a64f bebc 4839 313d
00000020: 7757 3f3c 887f b0bc 03f5 7c3b 4786 103d
00000030: 952f 20bd 96ff 6abc ad76 e03c 2fc9 16bc
00000040: ccc0 99bc 4e84 43bc dec0 4d3c eabe 1dbd
00000050: 392f 8f3b ea8e 3b3c d026 273c d10a 0dbb
00000060: 066b b13c e9fa 5cbb f835 0c3d 9eb8 163d
00000070: 602a fabc e187 18bc e58a 063d 63df 6bba
00000080: 729e 34bc fc39 de3b a310 02ba 9dfd 38bc
00000090: 94b8 853c 68ce 2c3d 9679 5f3b 933e f93c
000000a0: ad2e 2d3d 33df ebbc b53b 16bd b873 91bb
000000b0: 8535 2a3c 07a7 93ba eaa0 96bc 8557 f8bc
000000c0: c61a 803c 9c89 383d d71c 853c 53a1 3b3d
000000d0: 0a88 08bb c22f 693d cea6 88bc 6a2b 563d
000000e0: 49c0 b53c 3a11 633d 26be 393d 8d27 f63b
000000f0: a46f d43a 93fd 0cbc 6a4a e83b a591 15bc
00000100: 6267 3fbc e31f e1bc 4f1f e23c 7538 093d
00000110: ca8c 673b 9f23 0fbb e671 07bd 3aca 23bd
00000120: df91 0cbd d507 06bd bc89 14bd 837f af3c
00000130: a310 0abd fdbc ab3c b6f6 ef3c 4efa 343a
00000140: d100 363c 82f6 e13c 3327 24bd ff5b 1c3d
00000150: 31d5 343d 6dbc 2c3d 9954 8dbc f1d7 de3c
00000160: 9359 7abc 5044 e13b 1362 173d 84b3 173c
00000170: 6f84 6b3c 85cd 40bc 5fda abbc 8baf 133d
00000180: 2f3d 24bd 6127 033c f311 aabb 2133 31bc
00000190: 36a1 25bd 3349 e4bc 9191 dbbc 47d6 cb3b
000001a0: 1ee4 8d3c df69 29bd db38 8bbc 2e9d 30bd
000001b0: e1a7 fb3c 8e99 2ebd 9a7a cebb d4df 2bbc
000001c0: 9282 c6bc 050b 023d e2e3 9a3c faa6 be3c
000001d0: 0a38 ff3c 0cd4 b4bc 2629 af3c bd52 123d
000001e0: 9c3e 26bc 800f 6dbb 4801 893b 1651 36bd
000001f0: b01e 9abb d03e adbb 5e9b 03bd bc8c 043d
00000200: 5904 5ebd 58b8 20bd 5cdf 9d3c 2b31 1c3d
00000210: 5afc 9e3a 64c0 96bc d750 fdbc 9c10 86bc
00000220: 901d f8bc 66c4 16bd 4da8 dabc 2dc6 cfbc
00000230: 92d5 1f3d 0d56 a03c 7036 f2b9 25a0 0cbd
00000240: 992c fcbc 8942 313d f788 c03b 38fa a33b
00000250: 9171 d8bc 5e63 bebc b7db b23c 20e1 73bb
00000260: a75e 9fbb 775b b2bc a523 06bd cdb2 e8bc
00000270: 29f1 3abd 6bab 253d 3827 cb3b 70be ca3b
00000280: 262f 443d ab13 0c3d 335b 393c 7d62 ad3c
00000290: 71db 6a3c dc94 26bd 53dc 353d 4eb8 d9bc
000002a0: 09ac 9bbc 3626 57bc b4f3 df3c 0127 363d
000002b0: b99b 0bbd 96bd 37bd c6bb 0fbd 8989 a2bc
000002c0: d955 4c3d 4e64 02bc 17aa ad3b 8fd4 093c
000002d0: 7367 c83c 9d63 f9bc fd30 f4bb 2bf1 273c
000002e0: b273 353c 1dac 17bd b0b4 f9bc 1157 093d
000002f0: 3ae0 6bbc e7a8 07bd 6b95 31bd 0032 bdbb
00000300: 14a0 b73c 20e6 17bc b642 fb3c 6989 ca3c
00000310: 7182 0abd 89e6 4a3b 2118 1d3d 65e9 f23c
00000320: 6339 5ebc 2e8c 12bd dcb9 2e3c a991 bb3c
00000330: b75c cebb a366 2fbd 8bdd 263d aaee a83c
00000340: 161e 02bd 861c a63c a369 403b 0539 513d
00000350: 88d2 263d 47c4 163d c319 0a3c 887b 77bc
00000360: 4d6a da3c 1081 e93c 74d8 b53c 7ad3 6c3d
00000370: 03aa 113d 7032 cbbc 4928 483c 250b 0cbc
00000380: d4dd 3a3c 4ec3 de3b c8b5 43bc 58bf 8b3c
00000390: f714 253d 18be a03b 6b00 7cbc be3d 98bc
000003a0: ca6a 203d 1a62 ee3b 838d 263d d4a7 d9bc
000003b0: 5bc4 a8bc ebd8 c1bc 210d 1f3d fa19 173d
000003c0: 5ed3 333c 05e6 d8bc 00a2 593c 638b 17bd
000003d0: 3d3d 0f3d 92ff f4bc 3447 ae3c f1b6 6f3b
000003e0: 40a1 f63c 0579 09bd a94b e63c a0ea ebbb
000003f0: d60e 113c e132 e1bc 19b2 523d a166 67bc

fc1.bias f4 [2]
-0.006130658 0.026958296
00000000: b0e3 c8bb a5d7 dc3c
