wandb/run-20220629_180055-8t12m551/files/model.pt (torch, 59031 bytes, 6 tensors)

cnn1.weight f4 [16, 1, 5, 5]
0.11566695 0.21518637 -0.11334913 -0.14963421 -0.068380475 0.15987399 0.11380272 0.23819052
-0.019669048 0.049634133 0.06297725 0.08989139 -0.10690986 -0.13107963 -0.10498157 0.111975424
0.20733182 0.22358955 -0.113076106 -0.10220844 0.16717069 0.2819741 0.07410041 0.20557661
-0.034037586 0.017454188 0.17700854 -0.191698 -0.12499099 -0.05096172 -0.0801697 0.1688978
-0.13900241 -0.090350084 -0.13675939 -0.1903192 -0.119515814 0.16566715 0.09546222 0.10315587
0.014290618 -0.0990988 0.033923227 -0.18298031 -0.13926938 -0.0970811 0.13928282 0.12817755
-0.08112759 -0.006589845 0.014330393 0.050610002 -0.10998714 -0.081794776 0.079685435 -0.25937256
-0.12801655 -0.2877767 -0.27676123 -0.1675029 -0.022843305 -0.07633012 -0.18896829 -0.089282975
0.04072153 -0.15699881 -0.1583131 -0.022923423 -0.024885219 0.11901105 -0.2757639 -0.20071195
0.036699094 0.036358792 0.09979035 0.18393032 0.047879472 -0.15867153 0.025239427 -0.15850186
-0.16785957 0.18897575 0.15581995 -0.1869707 0.009551997 -0.02831096 -0.040615384 -0.07645055
0.08631925 -0.117615014 0.06782861 0.08389144 0.14226322 0.083749466 -0.1844088 -0.14859763
0.08118611 0.022383856 -0.18376751 -0.09711938 0.13557468 0.10958983 -0.10076657 -0.071451396
-0.23581812 -0.058088392 -0.18732417 -0.16887972 -0.048101224 -0.023508195 -0.13530658 0.073819436
-0.13230526 0.16936256 0.12498629 -0.2189105 -0.085884415 0.023454731 0.03449044 0.043611836
0.011503553 -0.025411515 -0.09735661 0.09430164 -0.1896548 -0.16098972 -0.09764133 -0.07967851
-0.07552326 -0.17027716 -0.086832255 0.0038446905 -0.14574796 -0.00079875905 0.15967828 -0.04634618
-0.037299864 -0.030912519 0.04058664 0.1469345 0.15860994 0.08277823 0.18152234 -0.026537117
-0.17433082 -0.11880249 0.10777983 -0.017007528 -0.1096374 -0.16108721 -0.19631362 -0.17303626
-0.04459589 0.10604048 0.11099352 -0.20312254 0.11537817 -0.1615299 -0.04580221 -0.0776333
-0.04739192 -0.040446475 -0.18736614 -0.1766845 -0.023846839 -0.0003692194 -0.097910166 0.083293796
-0.18160596 0.0040587108 0.16767605 -0.08706872 0.18364967 0.09842077 -0.15572591 0.27037337
0.061958678 0.06929103 0.35706908 -0.03168637 0.13735083 0.072278686 0.29748502 0.2064521
0.26842675 0.21439569 0.08276691 0.11367894 0.007077955 0.27212924 0.32617766 0.30532876
0.05200938 0.2307983 0.011657859 0.06429004 0.07618839 0.2641856 0.1238412 0.14798343
-0.072444834 0.061495684 -0.15894939 -0.1226425 -0.100797914 0.07143641 -0.14017181 0.10926136
0.08818901 0.033249684 -0.065219656 -0.09751806 -0.028901696 -0.063918196 -0.012927807 -0.048702974
-0.22470231 -0.15978555 0.1411774 -0.17761244 -0.08614627 0.13155021 0.021906132 -0.03360225
-0.16779527 0.1479732 -0.06690886 0.0064892215 0.027929068 0.062399466 0.06511837 0.2711274
0.08858697 0.23095888 0.14413266 -0.05828544 0.18998243 -0.07657411 -0.016061308 0.09768536
0.113272645 0.24862641 0.022837771 0.07833713 0.17841119 -0.14278814 0.30888996 -0.051392317
0.1099507 0.07309139 -0.1380698 0.030987931 0.2644115 0.04375809 -0.0125144 -0.10961253
00000000: cbe2 ec3d d159 5c3e 9723 e8bd b639 19be
00000010: 100b 8cbd 02b6 233e 6711 e93d 37e8 733e
00000020: fc20 a1bc 294d 4b3d 37fa 803d fa18 b83d
00000030: 8ff3 dabd bd39 06be 9400 d7bd 5f53 e53d
00000040: cb4e 543e a9f4 643e 7294 e7bd a952 d1bd
00000050: cb2e 2b3e e95e 903e f5c1 973d ad82 523e
00000060: ff6a 0bbd 16fc 8e3c ba41 353e 7b4c 44be
00000070: 47fb ffbd 3dbd 50bd 0330 a4bd 8bf3 2c3e
00000080: a656 0ebe 7709 b9bd a70a 0cbe 09e3 42be
00000090: b5c4 f4bd a6a4 293e b281 c33d 6343 d33d
000000a0: 3223 6a3c 50f4 cabd 15f3 0a3d 315f 3bbe
000000b0: a29c 0ebe 75d2 c6bd 28a0 0e3e fa40 033e
000000c0: 3926 a6bd a0ef d7bb 06ca 6a3c 6f4c 4f3d
000000d0: f040 e1bd 0584 a7bd 1e32 a33d 7bcc 84be
000000e0: c516 03be 7857 93be a6b3 8dbe e185 2bbe
000000f0: e221 bbbc f752 9cbd e780 41be fed9 b6bd
00000100: 9ecb 263d 4cc4 20be d41c 22be e7c9 bbbc
00000110: 16dc cbbc 11bc f33d ed30 8dbe 6f87 4dbe
00000120: ca51 163d f5ec 143d e25e cc3d 3b58 3c3e
00000130: 441d 443d ca7a 22be eac2 ce3c 504e 22be
00000140: 61e3 2bbe dc82 413e 448f 1f3e 3f75 3fbe
00000150: fb7f 1c3c 63ec e7bc 515c 26bd 1b92 9cbd
00000160: 26c8 b03d 24e0 f0bd bae9 8a3d 46cf ab3d
00000170: 73ad 113e d784 ab3d a9d5 3cbe fa29 18be
00000180: e744 a63d 595e b73c 8d2d 3cbe 87e6 c6bd
00000190: 17d4 0a3e a270 e03d b45e cebd 1c55 92bd
000001a0: 4e7a 71be 18ee 6dbd e8d1 3fbe ceee 2cbe
000001b0: ca05 45bd 4294 c0bc cf8d 0abe a52e 973d
000001c0: 087b 07be 616d 2d3e d0f8 ff3d 132a 60be
000001d0: 2be4 afbd 2324 c03c d945 0d3d 53a2 323d
000001e0: 6679 3c3c cf2b d0bc e762 c7bd 3821 c13d
000001f0: de34 42be 7dda 24be 2df8 c7bd 7d2e a3bd
00000200: f0ab 9abd 235d 2ebe 1cd5 b1bd 34f7 7b3b
00000210: f43e 15be d063 51ba b482 233e 7ed5 3dbd
00000220: bec7 18bd 403c fdbc 2d3e 263d ff75 163e
00000230: a56a 223e a287 a93d fee0 393e 5e64 d9bc
00000240: c783 32be b84e f3bd acbb dc3d 5f53 8bbc
00000250: 9389 e0bd 0cf4 24be 7006 49be 6b30 31be
00000260: 2eaa 36bd c02b d93d 9250 e33d 5bff 4fbe
00000270: 644b ec3d 1868 25be 199b 3bbd 35fe 9ebd
00000280: 081e 42bd 34ab 25bd e9dc 3fbe c8ec 34be
00000290: 725a c3bc ca93 c1b9 2085 c8bd f095 aa3d
000002a0: eaf6 39be effe 843b 45b3 2b3e 1651 b2bd
000002b0: a90e 3c3e d490 c93d 9d76 1fbe 616e 8a3e
000002c0: 62c8 7d3d 75e8 8d3d c2d1 b63e 91c9 01bd
000002d0: b2a5 0c3e d906 943d f54f 983e 2e68 533e
000002e0: 3b6f 893e 8b8a 5b3e b381 a93d 81d0 e83d
000002f0: 31ee e73b 8654 8b3e c200 a73e 0d54 9c3e
00000300: ca07 553d 6456 6c3e 9b00 3f3c 7faa 833d
00000310: a908 9c3d 5643 873e 74a0 fd3d f888 173e
00000320: f55d 94bd e6e2 7b3d a1c3 22be fe2b fbbd
00000330: 236f cebd 414d 923d 3389 0fbe 6bc4 df3d
00000340: 719c b43d d230 083d e291 85bd 8cb7 c7bd
00000350: 40c3 ecbc 8be7 82bd 27cf 53bc c57c 47bd
00000360: 5d18 66be d39e 23be cf90 103e 09e0 35be
00000370: 756d b0bd 19b5 063e 7d74 b33c 83a2 09bd
00000380: 86d2 2bbe 4986 173e 8307 89bd 89a3 d43b
00000390: 80cb e43c 9596 7f3d c85c 853d 36d1 8a3e
000003a0: 166d b53d 7c80 6c3e 8397 133e b7bc 6ebd
000003b0: c18a 423e e3d2 9cbd 0193 83bc 430f c83d
000003c0: 7dfb e73d ec97 7e3e 4716 bb3c 386f a03d
000003d0: 6cb1 363e 0e37 12be d326 9e3e c080 52bd
000003e0: d52d e13d f0b0 953d 2b62 0dbe 67da fd3c
000003f0: f260 873e af3b 333d 3309 4dbc 897c e0bd

cnn1.bias f4 [16]
0.16933878 0.013707483 -0.1408929 0.17396832 0.06980371 -0.15752192 0.20001487 0.21042776
-0.098614186 0.14192052 -0.07856342 -0.039063197 0.20359343 0.16875322 -0.12977265 -0.045475718
00000000: 2567 2d3e 5a95 603c 3a46 10be c024 323e
00000010: 3ff5 8e3d 6d4d 21be b3d0 4c3e 607a 573e
00000020: 3cf6 c9bd 9d53 113e dce5 a0bd bb00 20bd
00000030: cc7a 503e a5cd 2c3e 1fe3 04be bf44 3abd

cnn2.weight f4 [32, 16, 5, 5]
-0.01865568 -0.019937985 -0.006012267 0.04174662 0.0064181457 -0.030899566 0.0013028246 0.023160446
0.02049168 -0.046308648 -0.009012047 -0.03725641 -0.021851532 0.014069134 -0.035326175 0.01858258
0.04294748 0.0028767926 -0.036908846 -0.012982036 0.010893655 -0.036911167 0.024862928 -0.049221776
-0.042693768 -0.05350919 -0.012692993 0.033233102 -0.051370606 0.0425888 -0.021053195 0.0086755995
0.002142718 -0.04830881 0.043292306 0.026915388 0.04978054 0.025168583 -0.035417713 0.043218445
0.0027587626 0.023741307 -0.040162165 -0.01591367 -0.048167743 -0.01930564 0.011891603 -0.03914788
0.015272998 0.026900264 0.061449 0.021768041 0.022208778 0.0559123 0.07935823 0.1039715
0.085117 0.058655843 0.087627485 0.010482575 0.018416649 0.076357454 0.023858448 0.08744561
0.02226317 0.022877501 0.0043191896 0.08540265 0.05735791 0.09194493 0.07133645 0.071143724
0.05511491 0.04358424 0.048839383 0.0031387396 0.024402263 -0.03742262 0.038166683 0.0002710873
-0.042305455 -0.027093897 0.043421667 0.041285552 -0.044820048 0.035096824 0.029540673 0.028850444
0.03843009 -0.026377266 0.018008754 0.026727436 -0.0152299795 0.013281681 -0.0062448457 0.034268957
-0.009139719 -0.018676778 0.0111287525 0.01680431 -0.022966443 0.00015185583 0.016329214 -0.012395287
0.016912784 -0.023892093 0.006493164 -0.036374897 -0.029296348 -0.026230102 0.034879316 -0.013466451
0.00013217055 -0.02322167 0.048899796 0.051252387 -0.037309658 -0.0371944 -0.03734575 -0.0012771613
-0.01019777 -0.027768876 -0.010543359 0.009820809 -0.02679197 0.015373068 -0.01127651 -0.034316886
-0.00017278902 0.04176693 -0.03968809 -0.010032368 -0.030555386 0.044812743 -0.047064215 -0.048028417
0.049867403 -0.031849384 0.0070171217 -0.0047082445 -0.009468839 -0.010276694 0.031699307 0.00032000875
-0.04958136 -0.02870491 -0.016939474 0.025256652 -0.03346225 0.04639082 -0.016950332 -0.018176561
0.03081154 0.02465958 0.035462815 0.027842227 -0.015178098 -0.03321506 -0.0039491495 0.035729002
-0.01637439 -0.046365034 0.020493649 0.048659768 -0.01714717 -0.04083252 -0.04500674 0.012601765
-0.0037855417 -0.026943961 0.01238929 0.019740414 0.040550042 0.039327715 -0.007987587 -0.043344803
-0.042433683 0.05079037 0.02633819 0.020822948 -0.039171085 0.05176007 0.051732145 0.047323454
-0.04030576 -0.014905147 -0.02909529 0.052313652 -0.021390267 -0.014497077 0.038147964 -0.015407421
-0.014814453 0.0010886883 0.01096514 -0.029159857 0.053946085 -0.014550345 0.025324015 0.048009038
0.024909638 0.0070864954 0.039351188 0.0023249798 -0.021195762 0.047025762 0.011838279 -0.049288012
-0.010450065 -0.034243338 0.044002984 -0.004573971 -0.0460276 -0.004929153 0.030038645 0.013411137
0.01663903 0.0046741073 0.017147575 0.0030393172 -0.018113608 -0.044562653 -0.037097424 0.018882591
-0.029942267 0.027984122 0.03783572 0.01671344 -0.023478936 0.055947594 -0.0038824955 0.05258728
-0.026584048 0.005708755 0.052222833 0.0021025592 0.050361935 -0.016153337 -0.024197884 0.004090274
0.021883799 0.06520339 -0.0044714287 0.035643842 0.0047923117 -0.008363053 0.054941207 -0.024538824
0.021276712 0.05071966 -0.0042588753 0.040416904 -0.015408202 0.040193968 -0.04838711 -0.014894131
00000000: ccd3 98bc fc54 a3bc 8d02 c5bb 81fe 2a3d
00000010: 4f4f d23b 1621 fdbc 8ac3 aa3a faba bd3c
00000020: 2bde a73c 23ae 3dbd 44a7 13bc 2d9a 18bd
00000030: fc01 b3bc 3a82 663c 2eb2 10bd 7f3a 983c
00000040: b2e9 2f3d 9288 3c3b bb2d 17bd 9bb2 54bc
00000050: 4d7b 323c 2a30 17bd 57ad cb3c c69c 49bd
00000060: a9df 2ebd 742c 5bbd 45f6 4fbc 6f1f 083d
00000070: fc69 52bd 9871 2e3d c077 acbc 1a24 0e3c
00000080: d86c 0c3b 75df 45bd 4653 313d a97d dc3c
00000090: aee6 4b3d 582e ce3c 2a12 11bd d305 313d
000000a0: 5bcc 343b 217d c23c 1581 24bd 635d 82bc
000000b0: 8a4b 45bd dd26 9ebc ffd4 423c 8759 20bd
000000c0: 993b 7a3c f15d dc3c f2b1 7b3d e452 b23c
000000d0: 2fef b53c 4c04 653d 9186 a23d 03ef d43d
000000e0: d251 ae3d 1c41 703d 0a76 b33d 1bbf 2b3c
000000f0: 83de 963c 4c61 9c3d cb72 c33c af16 b33d
00000100: 4061 b63c 9969 bb3c fd87 8d3b 96e7 ae3d
00000110: 21f0 6a3d a04d bc3d d818 923d cdb3 913d
00000120: 2cc0 613d 6385 323d ce0b 483d 50b3 4d3b
00000130: 41e7 c73c 7648 19bd ab54 1c3d b920 8e39
00000140: 7c48 2dbd 05f4 ddbc ebda 313d 0a1b 293d
00000150: 3a95 37bd b0c1 0f3d 48ff f13c c457 ec3c
00000160: df68 1d3d 2315 d8bc 1887 933c 7ff3 da3c
00000170: 2a87 79bc 689b 593c 90a1 ccbb 9b5d 0c3d
00000180: c3be 15bc 0b00 99bc 5f55 363c 31a9 893c
00000190: 1f24 bcbc 7d3b 1f39 d8c4 853c 9a15 4bbc
000001a0: ae8c 8a3c 5ab9 c3bc 9cc4 d43b d8fd 14bd
000001b0: e5fe efbc 83e0 d6bc 9ddd 0e3d 64a2 5cbc
000001c0: 4397 0a39 5f3b bebc 274b 483d 06ee 513d
000001d0: 03d2 18bd 2859 18bd dbf7 18bd 6c66 a7ba
000001e0: 8c14 27bc 8e7b e3bc 0ebe 2cbc 75e7 203c
000001f0: d57a dbbc 52df 7b3c 1cc1 38bc dd8f 0cbd
00000200: b32e 35b9 cd13 2b3d fb8f 22bd cd5e 24bc
00000210: 4a4f fabc 918d 373d 68c6 40bd 72b9 44bd
00000220: c341 4c3d 8074 02bd e2ef e53b 9e47 9abb
00000230: 3023 1bbc 945f 28bc 22d7 013d d9c6 a739
00000240: d315 4bbd 8f26 ebbc a7c4 8abc 0ae7 ce3c
00000250: b60f 09bd 4d04 3e3d 6cdb 8abc 03e7 94bc
00000260: 7c68 fc3c e302 ca3c 7541 113d 6215 e43c
00000270: 8fad 78bc 840c 08bd de67 81bb 9358 123d
00000280: 9623 86bc 43e9 3dbd 4ce2 a73c 774f 473d
00000290: 3978 8cbc 0040 27bd fd58 38bd a277 4e3c
000002a0: da16 78bb 95b9 dcbc 73fc 4a3c a6b6 a13c
000002b0: cd17 263d 1916 213d 5ede 02bc 528a 31bd
000002c0: f1ce 2dbd 9009 503d 30c3 d73c e394 aa3c
000002d0: dc71 20bd 5e02 543d 16e5 533d 3dd6 413d
000002e0: a717 25bd b834 74bc 3f59 eebc d746 563d
000002f0: a43a afbc 2685 6dbc 0a41 1c3d 686f 7cbc
00000300: 52b8 72bc 51b2 8e3a 21a7 333c a7e0 eebc
00000310: 92f6 5c3d 9264 6ebc 4f74 cf3c 20a5 443d
00000320: 4c0f cc3c d535 e83b b62e 213d b05e 183b
00000330: bca2 adbc 169e 403d 57f5 413c 3ae2 49bd
00000340: c036 2bbc be42 0cbd 793c 343d 40e1 95bb
00000350: 7087 3cbd bb84 a1bb 9b13 f63c 63ba 5b3c
00000360: 934e 883c 4129 993b 1279 8c3c 482f 473b
00000370: fd62 94bc 5487 36bd 78f3 17bd aaaf 9a3c
00000380: 7c49 f5bc f53e e53c a1f9 1a3d a0ea 883c
00000390: e656 c0bc 4e29 653d 7771 7ebb c265 573d
000003a0: cac6 d9bc 8210 bb3b 9ce7 553d 17cb 093b
000003b0: 5148 4e3d 0154 84bc a43a c6bc b507 863b
000003c0: a745 b33c 5b89 853d 1085 92bb 47ff 113d
000003d0: d308 9d3b 3005 09bc 080a 613d a505 c9bc
000003e0: 804c ae3c 6bbf 4f3d 098e 8bbb 328c 253d
000003f0: af72 7cbc 6ea2 243d 9031 46bd 8306 74bc

cnn2.bias f4 [32]
0.005610834 -0.10518176 -0.01140476 0.13826342 -0.038782984 -0.01423609 -0.01305963 -0.028871894
-0.015702963 -0.038694628 -0.0051755025 0.13608915 0.044083796 0.036864642 0.18490179 0.28504035
0.13581137 -0.023699598 0.18900606 -0.02951857 -0.047042675 0.051230755 0.30766812 -0.046660915
0.0412166 -0.120059386 -0.054490685 0.08241201 -0.1553274 0.018497353 -0.008003516 0.024754655
00000000: 16db b73b 8969 d7bd 08db 3abc ed94 0d3e
00000010: e8da 1ebd 7d3e 69bc 0ff8 55bc c084 ecbc
00000020: 80a3 80bc 427e 1ebd 4397 a9bb f45a 0b3e
00000030: 3691 343d 61ff 163d e556 3d3e cff0 913e
00000040: 2312 0b3e a925 c2bc ce8a 413e eed0 f1bc
00000050: d2af 40bd 57d7 513d ad86 9d3e 841f 3fbd
00000060: bdd2 283d b2e1 f5bd a031 5fbd a1c7 a83d
00000070: 250e 1fbe c387 973c 2e21 03bc 46ca ca3c

fc1.weight f4 [2, 512]
0.2599455 0.2899881 0.008764402 0.0433276 0.041417025 -0.01370845 -0.027545733 -0.0015358677
-0.027962085 -0.020357866 0.32312196 0.018137556 -0.047161832 -0.03568247 0.40731865 -0.031578865
-0.017868407 -0.011931854 0.01458669 0.02368564 0.0055911206 0.011358961 0.011650418 -0.0008172152
0.021747503 -0.0026361346 0.03427853 0.027868977 -0.030537784 -0.008665697 0.034369808 -0.039916344
-0.013479453 0.0677128 -0.013647928 -0.015812498 0.0093795955 0.037427474 0.0061262893 0.05891069
0.034218647 -0.02969419 -0.033108424 -0.005799746 0.010669176 -0.0075930282 -0.037883833 0.07731395
0.83990014 0.87856 0.7808545 0.032247305 -0.029549796 0.94906 -0.028397642 0.7979491
0.9503791 -0.057057213 0.023293052 -0.12066737 -0.021458104 1.2353388 1.0111284 1.0225828
-0.0102980705 -0.026792534 0.026915314 0.034911443 0.0048649963 -0.0013606303 -0.033147205 -0.040224064
-0.034105174 -0.032722313 -0.03636252 0.020733023 -0.03371192 0.021173375 0.029400414 -0.00016908397
0.0104745 0.027583364 -0.040076446 0.03817367 0.043542735 0.042171884 -0.017252253 0.027130436
-0.016255317 0.0068745986 0.036958765 0.009259108 0.01608864 -0.0117655285 -0.02097815 0.036056083
-0.03987291 0.0077551384 -0.004283938 -0.012459926 -0.043107163 -0.026279548 -0.02524589 0.006694137
0.01729986 -0.040199522 -0.016994884 -0.042129047 0.030330375 -0.040646493 -0.005913449 -0.0063427417
-0.024232183 0.03174879 0.018907491 0.023060773 0.031154651 -0.022073768 0.021381926 0.035723437
-0.010146763 -0.0036172569 0.004181061 -0.043398447 -0.0047033653 -0.005287029 -0.03213059 0.032329794
1.5437291 1.5280006 1.3398876 0.66490656 1.7832687 -0.04777741 -0.02251699 -0.02720284
1.5680073 1.37971 1.4967984 1.313672 1.7026908 -0.08702022 -0.117715046 -0.052379273
-0.026673116 0.043276343 0.005475629 0.0050041936 -0.025081461 -0.022563158 0.021726158 -0.0037913248
-0.004613988 -0.02177213 -0.032748837 -0.028518444 -0.043530792 0.040474314 0.006486986 0.0061872527
0.033366833 0.022378158 -0.005923539 -0.008523245 0.0008987796 -0.04320508 0.03603294 0.18026549
-0.03322734 -0.010157349 0.010985154 0.030079732 -0.043317854 -0.041388385 -0.029507168 -0.026487265
0.018459566 1.4485124 -0.02279579 1.4514203 -0.103333496 -0.014090562 1.6386634 1.566367
1.5050161 1.6783165 1.733934 1.6729339 -0.17154475 -0.03839466 1.7488164 -0.00951015
0.020724237 -0.012445632 0.030550249 0.017188217 -0.035106394 0.00056537305 0.039129935 0.01905796
-0.016262349 -0.032702323 0.010324547 0.020545315 -0.009507701 -0.038467668 0.04320177 0.048402444
0.27007008 0.47314706 -0.015723528 0.041458543 0.42404968 0.32919562 0.39674264 -0.046384733
0.36390185 0.33063656 0.3254716 -0.0004527068 0.51519454 -0.0372486 -0.044804573 0.48496324
0.6882963 -0.0003515261 1.0199505 1.057606 0.74375486 -0.003221296 -0.023353066 1.0395067
0.78139246 0.89702123 0.024370357 0.9888805 -0.03293939 -0.023473762 0.012767842 1.0703502
-0.14614804 1.1688187 -0.09245794 -0.06425627 1.3706636 -0.15735574 1.1913326 -0.015011913
1.3113363 1.2490237 1.2083188 -0.00034067847 1.3522415 -0.1755022 1.3119048 -0.1088438
00000000: 9417 853e 5279 943e 9198 0f3c 4878 313d
00000010: e6a4 293d 6899 60bc 97a7 e1bc 2b4f c9ba
00000020: be10 e5bc 8ac5 a6bc 3e70 a53e 3695 943c
00000030: c42c 41bd c827 12bd 128c d03e d758 01bd
00000040: c460 92bc d37d 43bc 03fd 6e3c 6308 c23c
00000050: b835 b73b f01a 3a3c 65e1 3e3c 623a 56ba
00000060: d227 b23c 00c3 2cbb a567 0c3d 7b4d e43c
00000070: 602a fabc 91fa 0dbc 5bc7 0c3d 527f 23bd
00000080: ecd8 5cbc 02ad 8a3d 8f9b 5fbc 3689 81bc
00000090: e0ac 193c 8d4d 193d 0abf c83b 564c 713d
000000a0: da28 0c3d 3b41 f3bc b39c 07bd cc0b bebb
000000b0: c4cd 2e3c f0ce f8bb 142c 1bbd c756 9e3d
000000c0: b203 573f 4fe9 603f 15e6 473f c015 043d
000000d0: 6a12 f2bc 99f5 723f 2ca2 e8bc 6446 4c3f
000000e0: 0b4c 733f d3b4 69bd 12d1 be3c 7420 f7bd
000000f0: e8c8 afbc 951f 9e3f a86c 813f fee3 823f
00000100: 3db9 28bc 047c dbbc 817d dc3c 4dff 0e3d
00000110: 8c6a 9f3b 2d57 b2ba 5dc5 07bd fdc1 24bd
00000120: deb1 0bbd d507 06bd def0 14bd 4dd8 a93c
00000130: 8315 0abd c973 ad3c 23d9 f03c 224c 31b9
00000140: 3d9d 2b3c 82f6 e13c 3327 24bd ff5b 1c3d
00000150: de59 323d 6dbc 2c3d 9954 8dbc a640 de3c
00000160: df29 85bc 5044 e13b 1362 173d 84b3 173c
00000170: 53cc 833c 34c4 40bc 5fda abbc 8baf 133d
00000180: c751 23bd d11e fe3b 4760 8cbb b824 4cbc
00000190: 2391 30bd 3548 d7bc 78d0 cebc 7e5a db3b
000001a0: 70b8 8d3c 41a8 24bd db38 8bbc 828f 2cbd
000001b0: 6877 f83c f07c 26bd 9bc5 c1bb c6d6 cfbb
000001c0: 9282 c6bc 050b 023d e2e3 9a3c f2e9 bc3c
000001d0: 0a38 ff3c 0cd4 b4bc 2629 af3c bd52 123d
000001e0: 9c3e 26bc 800f 6dbb 4801 893b 92c2 31bd
000001f0: b01e 9abb d03e adbb 5e9b 03bd 3f6c 043d
00000200: ea98 c53f 8695 c33f 7081 ab3f 5137 2a3f
00000210: 2642 e43f 3fb2 43bd 8d75 b8bc 7ed8 debc
00000220: 77b4 c83f 569a b03f 1797 bf3f 6726 a83f
00000230: c6f1 d93f a837 b2bd 9614 f1bd a68b 56bd
00000240: 9481 dabc 8942 313d e86c b33b 38fa a33b
00000250: a377 cdbc 5fd6 b8bc 0efb b13c e077 78bb
00000260: f030 97bb 775b b2bc a523 06bd 839f e9bc
00000270: 584d 32bd 65c8 253d c890 d43b 70be ca3b
00000280: a9ab 083d 6652 b73c 3f1a c2bb 15a5 0bbc
00000290: 149c 6b3a cff7 30bd 4797 133d 8497 383e
000002a0: 6419 08bd 026b 26bc 13fb 333c c569 f63c
000002b0: 106e 31bd de86 29bd 04b9 f1bc d2fb d8bc
000002c0: 8438 973c db68 b93f 3dbe babc 24c8 b93f
000002d0: 83a0 d3bd 1adc 66bc b9bf d13f b77e c83f
000002e0: 5ea4 c03f 13d3 d63f 8df1 dd3f b322 d63f
000002f0: 6da9 2fbe b843 1dbd 37d9 df3f 76d0 1bbc
00000300: e0c5 a93c c4e8 4bbc 8444 fa3c 4ece 8c3c
00000310: b9cb 0fbd 8b35 143a b646 203d 701f 9c3c
00000320: 9e38 85bc dff2 05bd 4a28 293c a64e a83c
00000330: 30c6 1bbc 4690 1dbd 57f4 303d a441 463d
00000340: a046 8a3e 5540 f23e a1ce 80bc 6fd0 293d
00000350: 0a1d d93e 548c a83e da21 cb3e ebfd 3dbd
00000360: 5851 ba3e 3249 a93e 37a4 a63e 4759 edb9
00000370: cae3 033f fd91 18bd 0085 37bd 1a4d f83e
00000380: 3034 303f 094d b8b9 bd8d 823f a25f 873f
00000390: b866 3e3f 611c 53bb ee4e bfbc 8e0e 853f
000003a0: 5609 483f 2fa3 653f 58a4 c73c 4627 7d3f
000003b0: 74eb 06bd 0c4c c0bc 3630 513c 3c01 893f
000003c0: d5a7 15be da9b 953f 975a bdbd cb98 83bd
000003d0: e871 af3f dd21 21be 967d 983f 87f4 75bc
000003e0: ded9 a73f 02e0 9f3f 31aa 9a3f 179d b2b9
000003f0: 4016 ad3f d9b6 33be 7fec a73f 80e9 debd

fc1.bias f4 [2]
0.5025848 -0.4817574
00000000: 66a9 003f e8a8 f6be
